DFA-PS/Experiments/Full-GOP/HK/backup/best/DecisionModel_RatioModule.pt (torch, 78025 bytes, 83 tensors)

weight f4 [8, 4, 3]
00000000: d5bd 30be 581b e4bd 3a65 8dbd d7ad 24be
00000010: 8092 66bd c6f1 8c3d e027 ba3d 189d 053e
00000020: 6a4c 823d 3512 8b3e 749b d5bd 1066 913e
00000030: 53ef 263e 098f 33be 6f44 6a3d 5e29 453d
00000040: 972d 82be 220f 11be 0375 7abe 3d99 25be
00000050: 6b9a ab3d 902b 3dbe 82ca 0a3c f3d2 fcbb
00000060: 1e1c 46bd 8a23 06be eadb 2fbe 4f3a a13d
00000070: 83d9 94bd 80d4 7e3d f95e 14be cd2e 273d
00000080: 1930 c03a fc8d 2c3e d60c 803e d645 913e
00000090: 517f 7c3e 725e 153e 4500 703e 5481 693e
000000a0: 8d65 86bd 6677 4ebe 2297 51be 3900 093e
000000b0: 7feb 68be dc30 f3bd b42c b0bc 3d70 55be
000000c0: d29d 0cbe 5001 623e 17cf 2d3e 0302 8dbe
000000d0: 4124 723d 0154 8abe 0301 493d f188 1cbe
000000e0: 5b8d 0cbe 2714 0f3e 207c 433e 7fb0 763e
000000f0: b880 10be 86b5 94bd 3608 93bd 5940 3ebe
00000100: c79d 21bd 3e2d 783d eecd 6c3e fe21 863e
00000110: 8006 813e 0292 c0bd b59b 8b3e 7d41 88bc
00000120: 57b2 413d 14cc 5e3e 51af d4bd 5bbc 743d
00000130: 7e0f 1c3e 80b2 8ebe 9162 80be b383 20be
00000140: 8f2e c2bd e216 303e 68b3 4d3e 63d2 44be
00000150: 1d08 503e f272 2bbe 0db2 64bd 98f4 ccbd
00000160: c8bd 163c 38db 04be 7e1b 87be 0a2f c73d
00000170: 07f2 243d 3729 0fbe a60e 8dbe 507d 23be
-0.17259915 -0.11138028 -0.06904073 -0.1608194 -0.056292057 0.06882052 0.09089637 0.13048208
0.06362231 0.27162328 -0.10430041 0.2839818 0.16302232 -0.17535032 0.05719417 0.048135154
-0.25425407 -0.14165929 -0.24458699 -0.16171737 0.08379062 -0.18473649 0.008471133 -0.007715577
-0.04836666 -0.13099495 -0.17173734 0.078724496 -0.072680496 0.062214375 -0.14489354 0.040816117
0.0014662772 0.16851038 0.25009793 0.28373593 0.24657942 0.1458681 0.23437603 0.22803241
-0.06562338 -0.20162734 -0.20467809 0.13378991 -0.22746085 -0.118745536 -0.021505691 -0.20843597
-0.13732079 0.22070813 0.1697353 -0.27540597 0.059116606 -0.27017215 0.04907323 -0.15286614
-0.13725798 0.13972531 0.19090319 0.24090765 -0.14111602 -0.07261185 -0.071793005 -0.18579234
-0.03945711 0.06059002 0.23125431 0.2619781 0.25200272 -0.09402849 0.27267233 -0.01663279
0.04728922 0.21757537 -0.103850015 0.059749942 0.15240285 -0.2787056 -0.250752 -0.1567524
-0.094815366 0.17196229 0.2008797 -0.19220881 0.20315595 -0.16743067 -0.055833865 -0.1000759
0.009200521 -0.1297425 -0.26388162 0.09725769 0.040269878 -0.13980566 -0.27550238 -0.15965772

bias f4 [8]
00000000: 92ce 62be 987e be3d 1e5c 393e 1c24 913e
00000010: 80a9 7b3c 3946 0cbe 783f 903d ea06 ebbd
-0.22149113 0.093014896 0.18101546 0.28347862 0.015360236 -0.13698663 0.07043356 -0.11475928

weight f4 [8]
00000000: 570e 803f 4dea 7f3f 8ff7 7f3f 690b 803f
00000010: a107 803f 67df 7f3f 0cfd 7f3f d801 803f
1.0004376 0.9996689 0.9998712 1.0003482 1.0002328 0.9995026 0.99995494 1.0000563

bias f4 [8]
00000000: bf17 9939 fb70 4ab9 58f7 5ab9 a514 8039
00000010: e4be 5e39 6469 cdb9 5e12 07b9 1b9e 0139
0.00029200126 -0.0001930631 -0.00020882243 0.00024429444 0.00021242682 -0.0003917917 -0.00012881446 0.00012361298

running_mean f4 [8]
00000000: 612c 08c6 3007 7445 6976 8cc6 7079 f645
00000010: 3802 61c6 8c44 ccc5 e3a2 bcc5 b835 7146
-8715.095 3904.4492 -17979.205 7887.1797 -14400.555 -6536.5684 -6036.361 15437.43

running_var f4 [8]
00000000: 8c37 1e4c d0c9 524b 2834 b64c 1cc4 b84b
00000010: a09f 754c 92ea 384b 70e2 174c 4be3 764c
4.147563e+07 1.3814224e+07 9.552723e+07 2.4217656e+07 6.4388736e+07 1.2118674e+07 3.9815616e+07 6.4720172e+07

weight f4 [8, 8, 3]
00000000: b9a2 79bd 956c 1ebb 79cf 7fbb 94dd d8bc
00000010: f07b a4bd b5e1 123e 66ba 443a 76ae 02bd
00000020: 387b 22be 4e81 cdbc 181e 873d 62e8 e9bd
00000030: d5b5 21be e790 203e de3a 083e e5cd f2bd
00000040: fea7 2dbe 82a7 2b3e f2f9 62bd bb2e 053e
00000050: df2f 3e3e 2563 3ebd e886 e4bb 7c3f febd
00000060: 1324 82bd 3c6c 0d3e 4a41 36be d51a 91bd
00000070: cd99 c8bc 72c0 3ebe c400 393e 9679 013e
00000080: 6cf5 25be c668 bcbd a0f1 05be 16a4 023e
00000090: de74 36bd 88d6 97bd 951e 233d b2b2 e23d
000000a0: f2d9 e3bd 1e89 503d fb76 1fbd 4f3d 49be
000000b0: 3a70 053e 4a3a b4bd 0ad4 813d ef69 c7bd
000000c0: 11b0 b6bd b3f3 033e 2302 e9bb 71d3 49bc
000000d0: 961c 1e3e 0eec f7bc 5332 393d d4ff 3bbe
000000e0: 9f70 83bd ab14 a4bd 538e 2f3d 130f 17be
000000f0: c288 c5bd f7ff a4bd 38eb 7ebc 4ef8 493e
00000100: 689b 823d 9dbc aa3c 967b 2a3e b946 b53c
00000110: 2f22 2bbd b55b e43d 4458 363c d2f5 033e
00000120: 2021 37be fd0d adbd 2f1c b83d d0f0 16be
00000130: 4a59 183d d0c8 43be f0f7 1e3e 6066 02bd
00000140: 6c4d 44be 594f fe3d 1f67 f43c 4ac0 b4bd
00000150: bf27 41be 70f7 7fbd adb6 393e 9ac8 ecbd
00000160: 9074 283e 93f7 da3d f341 903d a74c de3d
00000170: 34e5 37be 9556 0b3d 9c71 be3d 19d5 b1bd
00000180: 0164 47be fc53 89bd 4555 343e 9338 cc3c
00000190: 083d 063e ba35 fc3c 2710 1ebe 5e36 0b3e
000001a0: 1d0f a03b 7267 5a3d da10 b8bc ff5d ef3d
000001b0: 1b76 033e e651 fb3c 6bdb 173e b4cf 15bd
000001c0: 9ebc b83b 8324 9abd f897 06be 9b74 2c3e
000001d0: 0af7 123e 739d bf3b fe2b ab3d 17f9 863d
000001e0: 594a db3d 2a41 e23d f490 373e 6fe0 6fbd
000001f0: 8eb3 223e 5c2d f9bd 4f8e 2c3c 7d76 353e
00000200: d3d5 ec3c c29b fbbd 1633 253e 1d00 49bc
00000210: b70b d83d 3ecb 80bd 2576 ec3c e57a 6f3d
00000220: c718 853c c6ea 24be 1ee8 09bc e1c3 0dbd
00000230: 1a87 3cbc f83e de3b 15fe 413d e7cd 933a
00000240: 98c9 95bd 2a5b 39be 9ad8 363e 1fd3 13bc
00000250: 076f babd ac95 47be cd10 bb3d 2c29 e9bd
00000260: 605a 7dbd 4791 78bd e6e6 413e 73ff 05be
00000270: 6751 44bb f7df ee3d 5131 8f3d 59da a23d
00000280: fcc2 2f3d 4034 503e ff2f 0e3e 95e3 46bc
00000290: 51b0 2ebe c554 7bbd 484b 033e 0479 05be
000002a0: 34d4 0c3e 67eb 9fbb 5cc6 173e 3bca 2abc
000002b0: c941 05be 229a 41bd 7e58 303d 946a bdbd
000002c0: c769 48bd e614 41be d954 29bd d2f7 473e
000002d0: a054 28be ee01 71bc 6b03 5fbd 3d71 b13a
000002e0: e3cc 3f3d 66ba 4cbe ae9e 26be d6d1 d43d
000002f0: fd45 1f3d 2c2f 4e3e 9668 333d 2970 3dbe
-0.0609462 -0.0024173607 -0.0039033575 -0.026472844 -0.08031452 0.14343913 0.0007504582 -0.03190466
-0.15867317 -0.025086071 0.06597537 -0.11421277 -0.1579202 0.15680276 0.13303706 -0.118556775
-0.16958615 0.16763118 -0.055414148 0.13006108 0.18572949 -0.04648127 -0.00697409 -0.124144524
-0.06354537 0.1381082 -0.17798343 -0.07085196 -0.0244874 -0.186281 0.18066698 0.12644038
-0.16206902 -0.091996714 -0.13080454 0.12757906 -0.044545047 -0.074139655 0.039824087 0.1106924
-0.11125554 0.050912015 -0.038931828 -0.19652294 0.13031092 -0.0880018 0.06339271 -0.09737002
-0.08920301 0.12885933 -0.0071108504 -0.012318478 0.15440592 -0.030263927 0.04521401 -0.1835931
-0.06417965 -0.080117546 0.04286034 -0.14751844 -0.09645225 -0.08056634 -0.01555901 0.19723627
0.06377298 0.020841891 0.16648707 0.02212845 -0.041780647 0.11150304 0.011129443 0.12886742
-0.1788373 -0.08449934 0.089897506 -0.147403 0.037194528 -0.19119573 0.15524268 -0.031835914
-0.19170159 0.12417478 0.029834328 -0.08825739 -0.18862818 -0.062491834 0.18136092 -0.11561699
0.16450715 0.10691752 0.07043829 0.10854464 -0.17958528 0.034018118 0.09299013 -0.08683223
-0.19471742 -0.06705472 0.17610653 0.02492932 0.13109219 0.030787338 -0.15435849 0.13594958
0.004884614 0.05332131 -0.022468973 0.1168785 0.12838022 0.0306787 0.14829795 -0.036575034
0.0056377193 -0.07526495 -0.13143909 0.16841356 0.1435205 0.005847627 0.08358 0.06590479
0.1070754 0.11047585 0.17926389 -0.058563646 0.15888807 -0.12166855 0.010531976 0.17720981
0.028910553 -0.12285568 0.16132769 -0.012268093 0.105491094 -0.06288765 0.02886493 0.05846681
0.016247166 -0.16105184 -0.008417157 -0.034610633 -0.01150682 0.006782409 0.047361452 0.0011276574
-0.073138416 -0.18101183 0.17856064 -0.009022503 -0.09103208 -0.19490689 0.09134064 -0.11384806
-0.061853766 -0.060685422 0.18935737 -0.13085727 -0.0029955746 0.11663812 0.06991828 0.07951803
0.04291056 0.20332432 0.13885497 -0.012139221 -0.17059447 -0.06136014 0.12821686 -0.13034445
0.13752824 -0.004880357 0.14821762 -0.010424192 -0.13013376 -0.047266133 0.043053143 -0.09248844
-0.048929002 -0.18855628 -0.041340683 0.1952813 -0.16438532 -0.014709933 -0.05444662 0.0013537776
0.046826255 -0.1999298 -0.16271469 0.103915855 0.038885105 0.20135182 0.043800913 -0.18499817

bias f4 [8]
00000000: dd5c 31bd 9012 f2bd 7485 78bd 127c 38be
00000010: fb05 cabd 86ef 81bd 8897 a0bc 1dfb 23be
-0.043301452 -0.11819947 -0.060674146 -0.18016079 -0.09864422 -0.063445136 -0.019603506 -0.16013761

weight f4 [8]
00000000: 9b0d 803f a8f6 7f3f 4b03 803f ed03 803f
00000010: a806 803f 0ffa 7f3f c901 803f b501 803f
1.0004152 0.9998574 1.0001005 1.0001198 1.0002031 0.99990934 1.0000545 1.0000521

bias f4 [8]
00000000: d920 ce39 269f 8cb8 6167 0137 04d1 8839
00000010: 608f 7bb9 f058 bbb8 1b8a b1b8 8611 8db8
0.00039315855 -6.705364e-05 7.713069e-06 0.0002609567 -0.00023990637 -8.933421e-05 -8.465742e-05 -6.726668e-05

running_mean f4 [8]
00000000: 1808 cbbd 2ca0 c2be d658 5a3d be19 53be
00000010: 701f 2d3e aaea f83d 9b70 28bd 7cb6 afbe
-0.09913653 -0.38012826 0.053307377 -0.20615289 0.16906524 0.121541336 -0.041123014 -0.34318912

running_var f4 [8]
00000000: 4297 463d 85ef 893d c98d 283d a6dc 1a3d
00000010: fa04 3f3d 2c56 773d 80f6 d83d 59f7 073d
0.048484094 0.06735138 0.04115084 0.037808083 0.046635605 0.060384914 0.10593891 0.033194873

weight f4 [8, 4, 1]
00000000: 931d f4be 1c46 7c3d 96f3 113e b98e c3bd
00000010: bb90 11be 18b2 e83d 3907 bd3e 2f8f dc3d
00000020: 0f74 973e b27e 00bc 3204 ec3e a19e 87be
00000030: 4d07 f4be eaa8 f13d 7e36 d0be 0730 febe
00000040: d922 fbbe ff22 7bbe 18f3 48be a4c1 11bb
00000050: 8aed 3abe ef74 76be abfd 27be d804 c2bd
00000060: 42cf 053e ea81 b9be d8a7 45be 10f5 8a3e
00000070: 4ebb 9b3e 44e7 e03e 7c3b b73e 4b6e bfbe
-0.47678813 0.0615903 0.14253077 -0.095487066 -0.14215367 0.11362094 0.36919573 0.107694976
0.29580733 -0.0078427065 0.4609695 -0.26488212 -0.4766182 0.11799796 -0.40666574 -0.49646017
-0.49050024 -0.24525069 -0.19623983 -0.0022240663 -0.18254676 -0.24068044 -0.1640536 -0.0947358
0.13067344 -0.3623193 -0.19302309 0.27140093 0.3041634 0.43926442 0.3578757 -0.37388834

bias f4 [8]
00000000: b0a9 4ebd 6032 253e 1c27 ea3e bc30 c6be
00000010: 88dd a23d 508d ad3d 168f e3be 4083 963e
-0.050454795 0.16132498 0.45732963 -0.38709056 0.0795241 0.08474219 -0.44445103 0.2939701

weight f4 [8]
00000000: 3ce6 7f3f 54ff 7f3f b80a 803f d201 803f
00000010: f9e0 7f3f 0a02 803f 6df3 7f3f 5af6 7f3f
0.99960685 0.99998975 1.0003271 1.0000556 0.99952656 1.0000622 0.99980813 0.9998528

bias f4 [8]
00000000: 39bb c339 1f6a 8db7 6ba9 6d39 cd2a 45b8
00000010: 9107 c0b9 fb40 b637 cd4f 0938 82d1 6d36
0.0003733279 -1.6857926e-05 0.00022665194 -4.700832e-05 -0.0003662673 2.172635e-05 3.2737666e-05 3.5437702e-06

running_mean f4 [8]
00000000: 7811 3c45 9f8a 5dc5 670c 0746 7316 7b46
00000010: 0733 0fc1 33d9 3e45 9256 09c6 8b85 3e46
3009.0918 -3544.6638 8643.101 16069.612 -8.949958 3053.575 -8789.643 12193.386

running_var f4 [8]
00000000: 302d 1d4a 9c18 304a 9e8f 854b ca7f 744c
00000010: 7d16 9c46 015a 114a cac1 904b c6c7 054c
2.57518e+06 2.885159e+06 1.7506108e+07 6.409399e+07 19979.244 2.3814402e+06 1.8973588e+07 3.506972e+07

weight f4 [16, 8, 3]
00000000: 05b6 463e 2573 f2bc f2a2 0ebe 28b3 5ebb
00000010: b729 bcbd 244d 46be 011c 02be 09b0 083e
00000020: 4404 773b 200d 79bd 9ffa 9fbd 4d3f 1fbe
00000030: 2124 08be 6759 2dbe e43d aa3d 0803 833b
00000040: ae42 25be ddd1 06be 8839 87bc e484 e9bc
00000050: 99df 95bd aaeb eabd d312 c53b 9133 0c3e
00000060: 2469 003e 4a22 7b3d 25db c7bc c62b 9f3c
00000070: 6f10 8b3d 4abd a3bd 9158 3dbe 511d 3d3e
00000080: 4ea5 62bc 52b4 2f3d 405a 07be 2592 a3bd
00000090: ecaf ec3d 8da5 c5bd 00b7 5bbd 81fe f1bd
000000a0: 330d 503e 2ca2 35be 78a7 dd3c 31db c2bd
000000b0: fa87 133e cfc4 bcbd f01f a13d 4e66 6fbd
000000c0: f178 bb3d cb98 2d3e f5ad 93bd 68db 013e
000000d0: 4c11 2bbd dafe c5bd 8947 4e3c 5854 2abe
000000e0: b05b e63d 4201 abbd b3fe 163e 5935 b0bd
000000f0: 6014 47be 373b 0a3e 6d4f 7fbd 43ef 37be
00000100: d69d 26bd 1d80 27bc f54a 333e d72d 27be
00000110: c370 af3b 233c 8e3d 9442 b63d 761e 00bd
00000120: 2d34 453e e469 1dbe 083e 0a3e 69f1 0e3e
00000130: 9eb4 843d 49d8 1d3e 30d0 da3d 1fc2 8d3d
00000140: 941d 27bd f99a ecbd bf47 44be c991 1c3e
00000150: 0a11 233e 6411 fd3b fe83 ef3d 7742 063e
00000160: 6aa8 15be 2aef 82bd efc8 3a3d 08d7 94bc
00000170: 70de 1e3e 100f 0a3e f43f 83bd 7c29 d13d
00000180: 3914 ce3d a161 953c c3c1 3c3e a7ee 2fbe
00000190: 1a56 96bd 3e15 0dbd 18ef 00be afcf 01be
000001a0: 52b6 c43d 8823 653c 5b3a 6b3d 1557 3abe
000001b0: 8266 e7bd 9364 eabd 890a 2f3e b9f8 41bd
000001c0: 6a0c 10bd 71a9 343e 08dc a53c dbad a43d
000001d0: 5e97 80bc 2b7a 73bc 42b4 55bd a524 d83d
000001e0: 682e a23c b7bd 483e a381 813d 8b8a 1abe
000001f0: 2a0f fcbb 6d14 563d ad9d 9dbd e4c8 113c
00000200: 2ccc 1c3e 9b06 30be 711e 6dbd 435b 373e
00000210: d4a5 be3c 99da 35be ab45 323e daf6 bd3d
00000220: cd09 19be 3e2b 0f3e b90a b2bd e74c 0fbd
00000230: 0a22 8f3c 4748 b6bd f982 41be 254e 0d3e
00000240: 06f7 4cbe 7159 a0bc 6776 2ebe a2a2 24be
00000250: c362 0d3e 4ceb f43d cd36 c63d 903c 433e
00000260: 2f9e d4bb 92a8 6bbd 74df 033e 1bb8 f83d
00000270: ed85 bcbd 53a1 1abe 62bf a23d e23d 0a3e
00000280: 1fc5 13bd 5564 88bd 9020 2f3d ea67 bdbd
00000290: b123 ba3d 3236 183e cc9e d73c 5507 203e
000002a0: 5682 07be a015 873b b8e3 4d3e 75bd 363e
000002b0: d8a6 aabd 0668 59bd b982 453e be28 123e
000002c0: 1e63 133e 3bab 08be a54a bf3d 9be5 0abc
000002d0: 2cc3 ae3d 2661 233d a3c0 fdbd 733e 313d
000002e0: 3f00 253e 0a5f 743d 358b f43c f808 2e3c
000002f0: 85ea 263e cb4a 89bd 8c0b af3d e8f9 4a3d
00000300: 1288 5cbd 98be acbd 6d55 0abd 6595 2dbe
00000310: 9b7f 20be a82b 3b3e de53 20be 6f3a 8bba
00000320: 8477 3dbe ae6f d73d 161c 223e dbf9 2e3d
00000330: 965a 65bd b313 febd aa1b 43be c1ca 6eba
00000340: 65ca d2bd c22f ae3d 6932 393e 2489 c8bc
00000350: 6ef4 b83d 03b7 23be e6ec b4bd a656 c93d
00000360: 4e9f 27be bf59 413e 2423 f63d 616b dcbd
00000370: 03bb 013d 8616 4e3e b11d 2abe c0a2 b93c
00000380: 78d1 723d ab55 62bd 4ec8 5fbd 89eb c33d
00000390: aca8 673d 66a4 fd3d f3d5 c73d bec4 073e
000003a0: 0da3 0c3d b726 093e 82cd 423c 8019 803c
000003b0: 2313 1ebe c00a 483e 6a2d cfbd 88c2 da3d
000003c0: 0d76 92bd d6d4 8abd d973 07bd dd2e 063e
000003d0: 5dc5 c93d e4e6 2e3d 9569 d1bd aaef 6b3d
000003e0: 1f96 2c3e 78ee e9bc 6683 9b3c 5951 7cbd
000003f0: ab89 c83d ef8b 13bd e871 99bd 11bb f7bc
0.19405372 -0.02959592 -0.13929346 -0.0033981297 -0.09187644 -0.19365364 -0.12705995 0.13348402
0.0037691751 -0.060803533 -0.07811474 -0.15551491 -0.13295032 -0.16928636 0.08312586 0.003998164
-0.16138718 -0.13165994 -0.016506925 -0.02850575 -0.073180385 -0.114707306 0.006014207 0.13691546
0.12540108 0.061311997 -0.024396488 0.019430052 0.06790244 -0.079950884 -0.18490817 0.18468215
-0.013833357 0.042896576 -0.13218021 -0.07986859 0.11556992 -0.09650717 -0.05364132 -0.11816121
0.20317535 -0.17737645 0.027057394 -0.09514464 0.1440734 -0.09217226 0.0786742 -0.058447175
0.09153927 0.16952817 -0.07210914 0.12681353 -0.041764542 -0.0966775 0.0125902975 -0.16633737
0.11247957 -0.08349849 0.14745598 -0.08603925 -0.19441366 0.13499151 -0.062331606 -0.17962365
-0.040677868 -0.010223416 0.17509063 -0.1632608 0.0053540184 0.06945064 0.088994175 -0.03127905
0.19258185 -0.15372425 0.13500226 0.13959278 0.064797625 0.15414537 0.1068424 0.06921791
-0.040799692 -0.11552996 -0.19167994 0.15289988 0.15924469 0.0077230204 0.116950974 0.13111292
-0.14615026 -0.06393273 0.04560178 -0.018168941 0.1551454 0.13482308 -0.064086825 0.10212991
0.10062451 0.01823503 0.18433289 -0.17180882 -0.07340641 -0.034444086 -0.12591207 -0.12676881
0.09605087 0.013985522 0.0574287 -0.18197282 -0.11298849 -0.11444964 0.17093863 -0.04735634
-0.03516809 0.17642762 0.02024652 0.08040973 -0.015697177 -0.01486067 -0.05217386 0.105538644
0.019797519 0.1960362 0.06323554 -0.15091912 -0.0076922374 0.052265573 -0.0769609 0.008897994
0.1531226 -0.1719002 -0.05789036 0.17905907 0.023272432 -0.1775917 0.17409389 0.09275599
-0.14945145 0.1398134 -0.086934514 -0.03498545 0.017472286 -0.089005046 -0.18897618 0.13799341
-0.20016107 -0.019573899 -0.17037354 -0.16077664 0.13807206 0.11958942 0.09678421 0.19066072
-0.0064885835 -0.057533808 0.1287821 0.1214449 -0.09205232 -0.15100603 0.079466596 0.13500169
-0.03607666 -0.06659762 0.042755663 -0.09248336 0.09088839 0.14864424 0.026320837 0.15627797
-0.13233313 0.004122451 0.20106399 0.1784571 -0.08332604 -0.05307772 0.19288148 0.14273354
0.14393279 -0.13346569 0.09340409 -0.008477594 0.0853332 0.03988757 -0.12390258 0.043272447
0.16113375 0.05966095 0.029851535 0.0106222555 0.163004 -0.06703719 0.08547124 0.049554735
-0.053840704 -0.084347904 -0.033772875 -0.1695152 -0.15673678 0.18278372 -0.15656993 -0.0010622273
-0.18502623 0.10519348 0.15831026 0.04271875 -0.055994593 -0.12406101 -0.19053522 -0.0009109192
-0.1029251 0.08505203 0.18085636 -0.024479456 0.09030996 -0.15987782 -0.08834247 0.0983098
-0.16369364 0.18881892 0.12018421 -0.107626684 0.03167249 0.2012578 -0.16612889 0.022660613
0.059281796 -0.05525748 -0.054634385 0.09566409 0.056557342 0.12384872 0.097576044 0.13258645
0.034335185 0.13393675 0.011889817 0.01563716 -0.15436988 0.19535351 -0.10116084 0.10681635
-0.07151423 -0.067788765 -0.033069465 0.13103814 0.09852097 0.042700663 -0.10225216 0.05760161
0.16854142 -0.028556094 0.018983554 -0.061601017 0.09791883 -0.036022123 -0.07492429 -0.030240567

bias f4 [16]
00000000: 16ec 9bbd 8828 7f3d 4fab 39bc dc49 4bbe
00000010: 1cff 0ebd 4cf3 9cbd 207d 883d f26c 34be
00000020: f85a a33c 0899 053d 4daf 23be d2e5 46be
00000030: 381f 8b3c b03e 39bd 2e5d 38be b938 dabd
-0.07613389 0.062294513 -0.011332347 -0.19852394 -0.03491126 -0.07663593 0.06664491 -0.17619684
0.019940838 0.032616645 -0.1598484 -0.19423607 0.01698266 -0.0452258 -0.18004295 -0.1065535

weight f4 [16]
00000000: 6ef8 7f3f 1dfa 7f3f a4fe 7f3f 4409 803f
00000010: a3f1 7f3f 8b04 803f d6ee 7f3f fcf6 7f3f
00000020: d808 803f 8b02 803f 55f1 7f3f 3806 803f
00000030: 8709 803f 33fb 7f3f b4fb 7f3f 3701 803f
0.9998845 0.9999102 0.99997926 1.0002828 0.99978083 1.0001386 0.9997381 0.99986243
1.0002699 1.0000776 0.9997762 1.0001898 1.0002908 0.99992675 0.99993443 1.0000371

bias f4 [16]
00000000: 1914 08b9 780c bd37 8834 2238 9374 9e39
00000010: 9a5a 15b9 7d95 7039 4a6b 54b9 8a35 30b6
00000020: 92f0 8039 4d0f 4a39 1baf 7db9 6530 2e39
00000030: b133 7439 a706 0939 baa6 4138 c25b 6239
-0.00012977458 2.2536362e-05 3.8672733e-05 0.00030222963 -0.00014243499 0.00022943872 -0.00020257864 -2.6257208e-06
0.000245933 0.00019269921 -0.00024193192 0.00016611961 0.0002328891 0.00013067816 4.6170062e-05 0.00021587222

running_mean f4 [16]
00000000: e83b 38bf 394c 253d 3e6a 173e 6b61 5b3d
00000010: 3f34 58be 7a36 55be 0c54 ad3e 2ddf d93e
00000020: b71f c2be 63d8 9c3e 60ba fe3d f52c 88be
00000030: 5e69 8c3e 259c 93bd 4594 a7be db98 8bbd
-0.7196641 0.040355895 0.14786622 0.053559702 -0.2111368 -0.20821562 0.33853185 0.42553082
-0.37914822 0.3063384 0.12437892 -0.265968 0.2742414 -0.072075166 -0.32730308 -0.06816264

running_var f4 [16]
00000000: c53d 053e 19e3 803d 2e14 c73d 0d5d ac3d
00000010: 31a5 233e e3d3 aa3e fdaf 533d 5b39 ad3e
00000020: 1f6a 4f3e 4504 7f3e dd7a 433e 6665 293f
00000030: 51df ed3d a371 c93d 25a7 5c3e b965 323e
0.13011844 0.062933154 0.09720646 0.084161855 0.15980984 0.33364782 0.051681507 0.3383282
0.20255326 0.24903972 0.19089837 0.66170347 0.1161486 0.098361276 0.21548136 0.17421617

weight f4 [16, 16, 3]
00000000: c0cd 863b d0c8 54bd 458e 383d 096f 353c
00000010: f400 b93d a706 0e3d 92d8 9d3d 1c01 e83d
00000020: 08fb aabd 99ea d93c 9b62 00be 0bd8 b63d
00000030: e72b ba3d 4876 fcbc db69 b63d c623 b23d
00000040: c176 d6bd 3715 09be 213f 10be 626f 773d
00000050: 6402 073e ee60 383c d532 fbbc 86c7 f3bd
00000060: 473c e43d efdc a03d dad0 2e3d 3b58 a1bd
00000070: d39c 073e 8f81 b6bd 8762 293d 2c35 8cbd
00000080: 7e47 073d 2de1 8ebc 076b a3bc 9a87 05be
00000090: 588b 86bd 16c1 c43d c834 0ebd 63a2 4ebd
000000a0: 0d41 133e 8324 8ebd cb4b 37bd d6c6 083e
000000b0: 8730 543d 7167 16bc 2e6d c13d 80e9 a83d
000000c0: 9ee3 94bc 73f1 00bd dfef c83d e693 f53d
000000d0: 5cc9 c53c 5f7f 1f3d 4e33 9c3d 7619 393d
000000e0: d543 02be da96 02be a136 0e3e 4638 95bd
000000f0: 86da 083e a2c1 f1bc fe97 113e 48b7 1cbd
00000100: 912b 663c b718 12be e5b3 29bc c2b9 2a3c
00000110: 439f 08bc 3539 90bd 6207 bbbd a153 20bd
00000120: 9738 933d 21aa 663d 25e4 873d fcdd ce3c
00000130: 79c1 753d 5f9b 9b3d a66e bb3d 6e3a a8bd
00000140: 6464 febd 1c4d 4e3d ab99 b33c 1090 96bd
00000150: 7310 bb3d 7f29 9e3d c507 383c 7fd6 453d
00000160: 8bd4 43bd 2f1e b43b 5fb7 833d f173 e8bd
00000170: b789 ba3c e14c ae3d ed80 4d3c 525e a3bd
00000180: c542 c7bd 7a4e cabd 79c6 133d 725b 21bd
00000190: baee a7bd 3503 9fba 8efc ba3d a0d4 0fbe
000001a0: 0664 0d3e 3717 d73d 98d3 6f3d cf69 383d
000001b0: 3fe3 c4bc 828a b0bd 0129 893d e048 95bd
000001c0: 2d28 d63d ccaa fabd da80 13bc f6de 9ebd
000001d0: fd0e 97bc 533a e73d 2747 943b d389 97bd
000001e0: 028b 213d 248f 113e 5698 54bc 2ffd f6bd
000001f0: 71e5 193d f9ea 0e3e 75ac a43d cbd1 f63d
00000200: 41c7 09be da85 96bd 3b05 2cbd b8e6 e13d
00000210: a41b bb3d 8d82 023d 3dbb c83d 8fc1 f23d
00000220: 9db9 b7bd 2d6e 243d 57fe c5bc 4135 9b3d
00000230: 532f a0bd d49f 8fbb af9c 03be 6acb 1c3d
00000240: 5e7a 673d 5ec1 053c 48fe 7e3d 7897 033e
00000250: 6a31 eabd f602 383d 0b5e c23d 2c38 443d
00000260: a97e f1bd 8d82 513d ffa3 f9bd 8572 efbd
00000270: c44d 0c3e 8ef6 5c3d a619 bdbd 8835 ffbd
00000280: 976c a23c 4061 e73d 0d4a c23c a9cf 53bd
00000290: f84a da3d f63e 003e c9d0 86bd b32a ca3d
000002a0: 3e98 863d f0d9 a73d 53ee 23bd 2e3e 6cbd
000002b0: 0c5b 9fbd 0fd8 093d bc96 e43d ab26 9e3c
000002c0: 6f33 e6bd 59ca 61bd 28d3 ef3d dbe5 343d
000002d0: 2943 70bd 66dd 8fbc ea73 a63d c476 99bd
000002e0: 0a48 e0bd 86cf 65bd 0cdf 32bc 37da f63d
000002f0: 6c20 cebd 16ac 91bb 5e57 b2bd e015 893d
00000300: 5d37 02bd c994 623b 2f92 9e3d a28d 9f3d
00000310: 6da9 d3bd 07bb d13d 4774 1fbd 7fa9 c13d
00000320: 4f9e b1bd 68f8 6e3d 13bb a83d 8b76 053e
00000330: 61fe 6b3c 0905 35bd 9b42 7b3d 9744 d93d
00000340: 506e 4abd e5bb 2dbc 1205 113d 1a41 4bbd
00000350: 5cf7 f13b 610e e3bd e598 55bd e750 12bd
00000360: 2cfa 51bd 8b7e 3d3d ca1c dabd b94c 94bb
00000370: 5255 a5bd b2db 30bc cd2c 99bd 99e7 af3d
00000380: 0baa 4fbd d450 7d3d 8982 3c3c 1d78 e8bd
00000390: 673d a23d 94b9 f8bd c208 083e 5d60 8bbd
000003a0: af91 e23c b3af aebd 0349 4e3d ce38 f33c
000003b0: 9327 eebd a8cd 30bd 5037 053e e2e2 813d
000003c0: 7656 8dbd 18b5 00bd ded3 e6bd b2b9 b53d
000003d0: bfe4 5c3d 6047 b43d 2e61 293c 0444 acbd
000003e0: 25a7 6b3d 0127 2dbd 06ef dfbd 87c1 bbbd
000003f0: cd91 e1bd c9da d3bd 45ce f03d 123d 733d
0.004113883 -0.051949322 0.045057554 0.011073836 0.09033385 0.034674313 0.07707323 0.113283366
-0.08348662 0.026601123 -0.12537615 0.08927926 0.09090405 -0.03081812 0.08906909 0.086982295
-0.10471869 -0.13386999 -0.14086582 0.060408957 0.13184506 0.011253579 -0.030663887 -0.119032905
0.111443095 0.0785464 0.042679645 -0.07878157 0.13243417 -0.0891143 0.04135373 -0.06846079
0.033027165 -0.017441357 -0.019948496 -0.13040009 -0.065695465 0.09607141 -0.034718305 -0.050447833
0.14380284 -0.06940558 -0.044750016 0.133571 0.05180409 -0.009179936 0.094446525 0.082476616
-0.018174943 -0.031480264 0.09811377 0.119911 0.024143867 0.03893983 0.07626973 0.045190297
-0.12721188 -0.12752858 0.13888027 -0.07286124 0.1336461 -0.029511277 0.14218137 -0.038260728
0.014048473 -0.1426724 -0.010357832 0.010420265 -0.008338752 -0.070421614 -0.091322675 -0.039142255
0.07188528 0.05631459 0.06635312 0.025252335 0.059998963 0.07597994 0.09151964 -0.082142696
-0.12421492 0.050366506 0.02192386 -0.073516965 0.09133997 0.077227585 0.011232321 0.048300263
-0.04781012 0.005496762 0.0643146 -0.11350239 0.022770746 0.08510757 0.012542945 -0.079769745
-0.09729532 -0.098782495 0.03607795 -0.03939385 -0.0819983 -0.0012131693 0.09130202 -0.14045954
0.13807687 0.10502475 0.0585514 0.045022782 -0.02403414 -0.08620168 0.06697274 -0.072892904
0.10456882 -0.12239608 -0.009002889 -0.0775737 -0.018439764 0.11290421 0.0045250836 -0.07399335
0.03943921 0.1421476 -0.012975773 -0.1206001 0.037572328 0.13956822 0.08040706 0.120517336
-0.13454916 -0.07349749 -0.041997176 0.11030334 0.091361314 0.031862784 0.09801338 0.118533246
-0.0897095 0.040144134 -0.02416913 0.07578517 -0.078215264 -0.0043830667 -0.12852739 0.03827993
0.056513183 0.008163778 0.06225422 0.1285075 -0.11435206 0.0449247 0.094905935 0.047905132
-0.11791737 0.051149894 -0.12189483 -0.11691765 0.1370154 0.05394607 -0.09233408 -0.12461382
0.01982717 0.11297846 0.02371695 -0.051711712 0.106588304 0.12524018 -0.06582791 0.098714255
0.06572007 0.08195865 -0.040022206 -0.057676487 -0.07781038 0.033653315 0.11161563 0.019305548
-0.11240279 -0.055124614 0.11710197 0.04416452 -0.0586578 -0.017561626 0.081275776 -0.07493356
-0.1095124 -0.056106113 -0.010917436 0.1205334 -0.10064778 -0.004445563 -0.0870807 0.066936255
-0.03179108 0.0034573546 0.07742726 0.07790686 -0.1033505 0.10240751 -0.03892925 0.09456157
-0.08672773 0.058342367 0.082388066 0.13033502 0.01440391 -0.044194255 0.061342817 0.106087856
-0.04942161 -0.01060388 0.035405226 -0.049622633 0.007384224 -0.11086727 -0.052147765 -0.035721686
-0.051263973 0.04626326 -0.10650022 -0.0045257476 -0.08072914 -0.010794567 -0.07479248 0.085890956
-0.050699275 0.06184466 0.011505731 -0.11351035 0.07921868 -0.12144771 0.13284591 -0.06805489
0.027657358 -0.08529606 0.0503626 0.029690173 -0.11628642 -0.04316488 0.13009381 0.063421026
-0.06901257 -0.031422704 -0.11270879 0.08873309 0.053929087 0.08802676 0.010338111 -0.084114105
0.05753245 -0.042273525 -0.10934262 -0.09167772 -0.110141374 -0.10344464 0.11758093 0.059384413

bias f4 [16]
00000000: 5419 e33a 3fca f9bb 48d1 0a3e 5ebc df3c
00000010: a05a ee3d b90b 1fbc 5684 43bd c655 023e
00000020: 51a6 12be 22d3 103e 1a7b 11be 083a dd3c
00000030: 9a7d 113e b4b4 403d e2af e1bd 396a e2bd
0.0017326274 -0.0076229866 0.13556397 0.0273115 0.11638379 -0.009707385 -0.047733627 0.12728032
-0.14321257 0.14143041 -0.14207116 0.02700521 0.1420807 0.047047332 -0.11019875 -0.110554166

weight f4 [16]
00000000: 82fd 7f3f b4f6 7f3f d0e8 7f3f a0f3 7f3f
00000010: 3300 803f 28fa 7f3f 55fe 7f3f 4f00 803f
00000020: 8de8 7f3f 22f5 7f3f ee0d 803f b8ea 7f3f
00000030: 110e 803f 2c0f 803f 7f03 803f 38eb 7f3f
0.999962 0.99985814 0.9996462 0.9998112 1.0000061 0.99991083 0.99997455 1.0000094
0.9996422 0.9998342 1.0004251 0.9996753 1.0004293 1.000463 1.0001067 0.9996829

bias f4 [16]
00000000: f8de b5b7 5e51 28b9 f720 ecb9 1781 15b9
00000010: 9a28 2e39 70fd bcb8 bfd2 89b8 412d 2e39
00000020: 1ddb 93b9 f608 7eb8 b265 6939 9482 d6b9
00000030: d77f f339 4f60 af39 492b 1d39 b5d9 6ab9
-2.168071e-05 -0.0001605204 -0.00045037988 -0.00014257837 0.00016609058 -9.011745e-05 -6.5719236e-05 0.00016610791
-0.00028201277 -6.0566665e-05 0.00022258496 -0.0004091455 0.0004644382 0.00033450357 0.00014988812 -0.00022397081

running_mean f4 [16]
00000000: 1f4a 873e 17eb f03d 6e9c 163e 0906 c83d
00000010: 2c29 2e3e 385a dbbd 6bb9 2dbe b87d 113e
00000020: c5a4 a1be 568a 6fbd 4a4b b5bd e0e1 6f3e
00000030: 050b 30bb 6441 fabd b934 923d f45c 3abe
0.26423737 0.1176359 0.1470811 0.09766776 0.17007893 -0.10710567 -0.16965263 0.14208114
-0.31571022 -0.058481537 -0.08852251 0.23426008 -0.0026862037 -0.122195035 0.07138962 -0.18199521

running_var f4 [16]
00000000: 8fb4 de3c 7b40 813d 6b9d 6c3d 3524 053d
00000010: 06e1 9c3d ce2b 093d d5c0 a93c 301f c23d
00000020: ba84 763d ab5b 6f3d 24db 1b3d bc9b 203e
00000030: eb24 be3d 5688 4d3d caa9 bd3d 3e6d 973d
0.027185706 0.06311127 0.057767313 0.032505233 0.07660107 0.03348904 0.020721832 0.09478605
0.06018517 0.05843703 0.038050786 0.15684408 0.09284385 0.05017885 0.092609 0.07393883

weight f4 [16, 8, 1]
00000000: 3b05 673e 5f9e 2dbe 2acb 00bd 58ac b43e
00000010: 642a 183e 4208 2ebd 5351 343e 654e 10be
00000020: 7411 c6bd 98bb cb3d dd4e 433e 13e0 1d3c
00000030: 638c 9d3e 0f52 8a3e 57bd 97bd e11c 74ba
00000040: 98c3 8bbe fe9d 103e ddb6 1fbe e33d be3d
00000050: f147 98be 54c8 b33d c081 29be b272 4cbe
00000060: f1bc 983e 4175 50be 3c9e 26be 708e 5e3e
00000070: 4d6a ecbd b687 273c 3470 a3be b083 36bd
00000080: 3370 43bb b5ac ffbd 6b44 2b3e 106a 733d
00000090: 829c 103e 0da8 5dbe 57d0 69be 1864 c0bd
000000a0: a73e 80bc 2677 08bd 4e9e 88be eeb1 1fbd
000000b0: da08 333e 6b66 0fbe 22b8 b3be 0406 09be
000000c0: 2172 213e f0df aabe 725a a93d 7d6a 723e
000000d0: f036 05be 8749 33bd 2fd3 173e fc32 7a3d
000000e0: c775 23be 676d 52be 01e7 f7bd def3 e93c
000000f0: 98a6 0fbe 4848 91be b0cd 8fbe 3e68 18be
00000100: ef2c 87be 9508 18be ebd6 2bbb aa7e 1f3d
00000110: 7d2c 9dbe 92a4 3d3e b16a 263e f73e dc3c
00000120: 2278 6c3e 035e 92bc 6e86 ddbd da6f 6c3e
00000130: 122e ff3d 24f9 21be 6f66 e73d 93f9 14bd
00000140: 281a a43c 01c9 46be 4c7f 6cbc c0ed 1bbd
00000150: 7f0d 6ebc 225f 6cbe f5db b2bd 1225 49be
00000160: aad3 7e3e 6df4 aa3e f488 03be 781f 803e
00000170: 02cf 1fbe 7862 893e c85c 883e d5ca 133a
00000180: 30d7 b23e 4bf7 713d 9dbe 82be 0a02 45be
00000190: 9990 963c bc82 79be 10e4 83bd 9577 afbe
000001a0: 72ce 683e e7f0 87be 425a b43e 8bfb 7a3e
000001b0: ccd0 7abd 2dcd 8ebe 0ab1 2cbe f449 a6be
000001c0: ed34 ffbd 0a7f 80be b10f 94be 04f6 bebd
000001d0: 68a7 813e cab4 0a3e a74a a73e ad77 ad3e
000001e0: 52dd 93bc 99ca 15be 007a 0e3e a7fa a93e
000001f0: 4d54 efbd 6db0 a93d e166 7e3e 3671 7b3e
0.22560589 -0.16954945 -0.031443752 0.35287738 0.1485992 -0.042488344 0.17609148 -0.14092405
-0.09671298 0.0994789 0.19073053 0.009635943 0.3077117 0.2701573 -0.074091606 -0.00093121646
-0.27297664 0.14122769 -0.155971 0.09289148 -0.29742387 0.08778444 -0.16553402 -0.19965628
0.2983165 -0.20357229 -0.16271299 0.21734023 -0.11543713 0.010225227 -0.31921542 -0.04455918
-0.0029821515 -0.12484113 0.16725318 0.05942732 0.14122203 -0.21646138 -0.22833382 -0.09394091
-0.015654875 -0.033316754 -0.26683277 -0.038988046 0.17483845 -0.14003913 -0.3510142 -0.13381201
0.15766193 -0.33373976 0.08269204 0.23673435 -0.13009238 -0.043771293 0.14826654 0.06108378
-0.15962897 -0.20549546 -0.121046074 0.028558668 -0.14028394 -0.2837546 -0.28086615 -0.14883515
-0.2640147 -0.14847024 -0.002622063 0.038939156 -0.30698004 0.1851981 0.16251637 0.026885493
0.23092702 -0.017867094 -0.10816656 0.23089543 0.12459959 -0.15817696 0.112988345 -0.036370825
0.020032004 -0.19412614 -0.014434647 -0.038068533 -0.014529585 -0.23083165 -0.0873336 -0.19643047
0.24885431 0.33389607 -0.12845212 0.2502401 -0.15606311 0.26832938 0.26633286 0.00056378293
0.349298 0.059073728 -0.2553605 -0.19239059 0.018379496 -0.24366277 -0.06439984 -0.3427092
0.22735003 -0.2655098 0.3522511 0.24510019 -0.06123428 -0.27890912 -0.1686441 -0.32478297
-0.12461267 -0.25096923 -0.28918222 -0.093242675 0.25323033 0.13545528 0.32674143 0.33880368
-0.01804987 -0.14628066 0.13913727 0.33199045 -0.11686001 0.08285604 0.24843933 0.24554905

bias f4 [16]
00000000: 5090 fc3c a7da 873e aa47 49be 08a5 3abd
00000010: 9e66 293e e0e8 c83d 9616 88be 5cec ffbd
00000020: f4ba b73d d5c4 8b3e 3b4a a03e 3014 8e3d
00000030: 8ab0 2a3e 5601 5bbe 0da6 afbe 6cb1 af3d
0.030830532 0.26534006 -0.19656244 -0.045567542 0.16543052 0.098100424 -0.26579732 -0.12496254
0.08971205 0.27298608 0.31306633 0.06937444 0.16668907 -0.21387228 -0.34306374 0.085787624

weight f4 [16]
00000000: 8df1 7f3f 3008 803f 8d05 803f 42e4 7f3f
00000010: 8a09 803f 64f4 7f3f 060e 803f 5908 803f
00000020: 20d9 7f3f fef0 7f3f a6f4 7f3f 43ed 7f3f
00000030: 4d0f 803f 2a0e 803f 3f03 803f 8ee5 7f3f
0.9997795 1.0002499 1.0001694 0.9995767 1.0002911 0.99982285 1.000428 1.0002548
0.9994068 0.999771 0.9998268 0.9997141 1.000467 1.0004323 1.0000991 0.9995965

bias f4 [16]
00000000: 14f5 5d39 e445 87b8 010b ddb9 7cdb 83b9
00000010: e463 a939 c85a a4b9 1abf 4339 69e4 04b9
00000020: 5c6a bab9 307a dfb8 fddd 8b39 f5a6 a8b9
00000030: f2e4 ed39 d0a6 9139 9295 ff38 d7fd 6fb9
0.00021167501 -6.45032e-05 -0.00042160603 -0.00025149796 0.00032308616 -0.00031348155 0.0001866784 -0.0001267359
-0.00035555928 -0.00010656228 0.0002667754 -0.0003216785 0.0004537474 0.0002778084 0.00012187207 -0.00022887379

running_mean f4 [16]
00000000: 12dc 9a3e 06dd 3b3f 947c 44bf 94f2 8ebe
00000010: f028 29bc 0665 a6be 1e00 8cbe 3f1a 80bf
00000020: d39b 90be a33c 113f 904a 64be efda 433f
00000030: 1d16 62be ada9 07bf 5091 e4bd 1c19 013f
0.30246025 0.7338413 -0.7675259 -0.27919447 -0.010324702 -0.3249895 -0.2734384 -1.000801
-0.28243884 0.5673315 -0.22294068 0.7650594 -0.22078748 -0.5299328 -0.11160529 0.5042894

running_var f4 [16]
00000000: d24a 4a3e ffad 6c3e bd84 bb3e d594 8a3e
00000010: 7a76 0d3e 38a2 9a3d 64d7 6f3e b1f6 373e
00000020: 20ec 423d ec3f 2c3d c2b6 853d a75d 713e
00000030: c222 c83e 909e 983e 1f38 6a3e 67d5 8c3e
0.19755104 0.23113249 0.3662471 0.27066675 0.13814726 0.07550472 0.23422009 0.17965199
0.047588468 0.04205315 0.06528999 0.23570882 0.39089018 0.29808474 0.22872971 0.27506563

weight f4 [16, 16, 3]
00000000: 6885 b2bd 35a2 473d e3d3 b0bc 54cb d3bc
00000010: a6bc cf3d 102d 313b 06c9 0c3e 4743 f63d
00000020: 9312 ffbd b011 53bc 2878 7f3d 3569 5cbd
00000030: 581b 0f3e 7725 953b 1e05 37bc 7a15 dcbd
00000040: 63b4 79bc b27f e5bd 2c15 e6bc eeec 51bd
00000050: dfdd 123e ace8 793d 34b3 3dbd b268 543d
00000060: 6098 0abe 6983 083e dbe0 c43d f8a0 753d
00000070: a3f4 e1bd 9585 6a3d 0878 dcbd 0f68 023e
00000080: 7f29 cf3d 0e2a cd3d f6ff 0fbe 7c05 e23d
00000090: f006 c3bc ae39 d2bd 5530 6f3d 8af8 103e
000000a0: 293a 9d3d 6655 843d 384b 03be 0a46 56bd
000000b0: 87d6 623d 464c ae3d eec7 a0bd 6073 06be
000000c0: 10f1 343d 62c7 40bd 4926 94bd 93bb 10be
000000d0: 91d2 5c3c 995c 013e a0bf 063d 0636 ca3c
000000e0: 099a b83d d4e4 f2bd b675 edba edd5 b53d
000000f0: fc2b 1e3d 724b 4dbd c5ae d43d b88e 073e
00000100: 6c50 22bd 6372 5a3d 80fa 523d 4467 0f3e
00000110: 37d0 993d a0fa f33d f629 c93d 7280 cdbd
00000120: b76f 9fbd 3bcd b93c 597e 43bd 47b3 febd
00000130: 2583 cabd 4e7c b1bc 2052 683c 4505 bebd
00000140: cf73 1cbc caba 8abd 6a5e 503d fd16 873d
00000150: 3acd 113e 1e94 cdbd 340d 09be 72e2 d0bd
00000160: ec4c 0fbe cbb5 d2bd f0d9 e43c 96f4 8ebd
00000170: 46ec f73d c001 0c3e 33e5 6bbd 1a99 5dbd
00000180: 5c2c 0a3e 1449 fc3d 37c1 e23c dc3b 733d
00000190: de9d e8bd abba bfbc 6594 8abd e29f 70bd
000001a0: c15f 2f3c d5b0 b1bd 8724 a23b a0dd b43c
000001b0: 6e8c c6bd cea1 be3d 8246 813c 1e62 b4bd
000001c0: 7f7c 16bd 93f2 f6bd 0c87 073e a3bd 033e
000001d0: 7560 ca3d 505b 5fbc 6ff3 9d3d 3ff0 e6bd
000001e0: 8a16 a13d 043b aebd 3b40 b83d 9a8e d03d
000001f0: 5583 cabd ba55 92bd a8bd e63d 9717 983c
00000200: 81db 053e 2cc4 053e 605c e1bd 66ee 9b3d
00000210: 0c3d f43d 0eeb ce3b 29c6 343d 25a1 a5bd
00000220: 9c04 883d e661 39bd 6684 113e 95bf 47bc
00000230: e366 3fbd 58f8 073d 4bbd 8c3d 4b58 6b3d
00000240: 340a 423d 483b 143c 6e52 06be 8066 e23d
00000250: e4c3 583d fbf6 9bbd 288e debc 1815 e6bd
00000260: 3e19 d0bd 80e9 37bc 5bda e73d a2b4 593d
00000270: 101c 2bbc ad6a 963d c387 ca3d 0be6 b9bd
00000280: ed4a 053e 8c64 ba3d 171c 04be 5f6e 33bb
00000290: 5310 133e 8b3f e2bd 1b08 7fbc 8728 913d
000002a0: 14b4 f83d 1531 d33c 20cc a83d e27c c43d
000002b0: 5106 783d b13f 803d fe94 67bd 1f69 af3d
000002c0: 2c2d 1ebd d825 8cbc 9549 fdbd 3641 2cbd
000002d0: acd8 cbbc 6a43 4d3d fe4f dbbd d461 8c3d
000002e0: 6de4 c53d 6244 1dbd ec0f 52bd e37f 123e
000002f0: 5415 cf3d 044e 543d 6e2d e93d 94f4 f33c
00000300: c0a2 0c3e cba5 a73d bbd1 343d 5ee3 1cbd
00000310: 22af 9ebd ac1a 8f3d c0c0 033e e8fa e03d
00000320: b7d1 a03d 4493 6bbd 5d0f 783d acf4 7abd
00000330: 5a80 2bbd af5f 5a3d 6811 0c3e bd3b 8dbd
00000340: 070b d5bd 003d 4a3d cad2 0c3e b089 8cbd
00000350: 4110 ed3d 1c9c ffbd b4ba 2ebd db4c 94bd
00000360: ecda e03d 760e da3d b52b 9cbd 78c2 8bbd
00000370: 1f6b 72bd 84b8 f3bd e824 d33d f50b d9bd
00000380: ecf8 e7bc 0417 44bd ec92 b8bd 9fac d9bc
00000390: 4022 cb3b bf59 c1bb 0126 e53d c0fb c03c
000003a0: 71e9 d4bd e56f c03d b0ee b83d 375d b63d
000003b0: 8efa 95bd 0296 bd3d b13b e4bc 75d7 003e
000003c0: 68b8 da3d 718e 993d 8bd7 813d e0e9 913c
000003d0: 43c7 9f3d 2309 84bb c017 b7bb 0c72 e7bc
000003e0: 329b cbbd 8f7f 0dbe b91e cabc ef15 b2bd
000003f0: 009f f4bd 5955 9abd 85e8 0f3d e86a a0bd
-0.087168515 0.048738677 -0.02158541 -0.02585379 0.10143404 0.0027034916 0.1374856 0.12024551
-0.124547146 -0.012882635 0.06237045 -0.05381127 0.13975275 0.0045515853 -0.011170654 -0.10746284
-0.015240761 -0.112059966 -0.028086267 -0.051251344 0.1434245 0.06101291 -0.04631348 0.051857658
-0.13534689 0.13331379 0.096132 0.059967965 -0.11032989 0.0572563 -0.10765082 0.12735008
0.101153366 0.10017787 -0.14062485 0.11036202 -0.023807019 -0.10264908 0.058395702 0.1415731
0.07677109 0.06461601 -0.12821662 -0.05231289 0.05538037 0.08510642 -0.078506336 -0.1312995
0.044175208 -0.047065146 -0.07233865 -0.14134054 0.013477937 0.1263298 0.03289759 0.024683964
0.09013755 -0.11860052 -0.0018116746 0.08878694 0.038616166 -0.05012078 0.10384897 0.13238037
-0.039627478 0.053331744 0.051508427 0.14004236 0.07510417 0.11913037 0.098224565 -0.100342646
-0.0778498 0.02268087 -0.047727916 -0.12436538 -0.09888295 -0.021665718 0.014179736 -0.09278349
-0.009549095 -0.067739084 0.05087129 0.065961815 0.14238444 -0.10038017 -0.13383943 -0.10199441
-0.13994187 -0.102885805 0.027935952 -0.06980245 0.121056125 0.13672543 -0.05759163 -0.054101087
0.13493484 0.12318626 0.027680023 0.05938326 -0.11358236 -0.02340444 -0.06766585 -0.058746226
0.010703982 -0.08676306 0.004948202 0.022078335 -0.096947536 0.093082055 0.015780691 -0.08807777
-0.036739822 -0.12057986 0.1323511 0.1286531 0.09881679 -0.01363261 0.07712447 -0.11276292
0.07865627 -0.0850735 0.08996626 0.10183449 -0.09888331 -0.07145257 0.11266643 0.018565936
0.13072015 0.13063115 -0.11003947 0.0761383 0.11925706 0.006314642 0.044134293 -0.080873765
0.06641504 -0.04525938 0.14210662 -0.012191673 -0.04672898 0.033195823 0.06872042 0.05745725
0.04737301 0.009047337 -0.13117382 0.110547066 0.05292119 -0.07615467 -0.027167395 -0.11234492
-0.101610646 -0.011225104 0.11320945 0.05315078 -0.010443702 0.073445655 0.09889176 -0.0907708
0.13016863 0.09101209 -0.1290134 -0.0027379019 0.14361696 -0.11047276 -0.015565897 0.07087808
0.12143722 0.02578024 0.08242059 0.09594132 0.0605529 0.06262148 -0.056538574 0.08564972
-0.038617298 -0.017107889 -0.1236755 -0.042054377 -0.02488359 0.05011312 -0.10708617 0.06854597
0.096627094 -0.038395293 -0.051284716 0.14306597 0.1011149 0.051832214 0.11385618 0.02977971
0.13733959 0.081859194 0.044145327 -0.03830277 -0.07748248 0.06987509 0.12866497 0.109853566
0.078525 -0.05751349 0.060561527 -0.061268494 -0.041870452 0.053313907 0.13678515 -0.0689616
-0.10402494 0.04937458 0.13752285 -0.06862199 0.11575366 -0.124809474 -0.042658523 -0.072412215
0.10979256 0.106472895 -0.07625524 -0.06824201 -0.05918419 -0.11900428 0.10309774 -0.10597984
-0.028316937 -0.047873512 -0.09012398 -0.02657157 0.0061991513 -0.005900591 0.11188889 0.023557544
-0.10396088 0.09396342 0.09029901 0.08904498 -0.0732318 0.09257127 -0.027860494 0.1258219
0.10679704 0.07497872 0.0633994 0.017811716 0.07801678 -0.0040294095 -0.005587548 -0.028252624
-0.099417105 -0.13818191 -0.024672853 -0.0869559 -0.11944389 -0.0753581 0.035133857 -0.07832891

bias f4 [16]
00000000: 6f86 98bd 7a1c c8bd 7042 c3bd 7c56 0bbd
00000010: a4f5 8e3d a439 79bd b042 df3d fa3f 0e3e
00000020: be74 d4bd 8c02 dc3d 92c5 80bd 74ea debc
00000030: 004d a43c e6f9 c4bd 646a 543d f042 623d
-0.07447516 -0.097710565 -0.09534156 -0.034018025 0.06980446 -0.060845986 0.109013915 0.13891593
-0.10373829 0.10742673 -0.062876835 -0.027211405 0.020056248 -0.09617977 0.051859275 0.055239618

weight f4 [16]
00000000: e8fa 7f3f c8f7 7f3f d106 803f f600 803f
00000010: d6fb 7f3f b110 803f 790f 803f 81e8 7f3f
00000020: b4dd 7f3f 84f2 7f3f 9f10 803f bef7 7f3f
00000030: cd07 803f acfa 7f3f c2f0 7f3f bfe8 7f3f
0.9999223 0.9998746 1.000208 1.0000293 0.99993646 1.0005094 1.0004722 0.9996415
0.9994767 0.99979424 1.0005072 0.999874 1.0002381 0.9999187 0.9997674 0.9996452

bias f4 [16]
00000000: 932c 6a38 5e3c 94b9 dac8 93b9 c915 71b8
00000010: dc7a 73b8 b72f fc39 f528 c239 e5cd d8b9
00000020: ddcd cfb9 117a 0ab7 428e e939 1b83 5939
00000030: c388 4839 2641 0139 1cd3 63b9 a060 55b9
5.583146e-05 -0.00028273737 -0.0002818767 -5.7479167e-05 -5.8050136e-05 0.00048100736 0.0003703308 -0.00041352134
-0.00039635497 -8.253862e-06 0.00044547213 0.00020743573 0.00019124434 0.00012326668 -0.00021727051 -0.00020349259

running_mean f4 [16]
00000000: 5010 49bc 6ec7 80be 11cb 453c 2db9 eb3e
00000010: 7274 ea3e 090f 603e 7c9a 8d3e ec50 973d
00000020: 528d 59bc e008 223e b4da 20bf ccb7 82be
00000030: 9952 183d cc78 9c3e d90d 6c3d 4f53 953e
-0.012271956 -0.25152153 0.012072341 0.46039715 0.45791966 0.21880735 0.27656925 0.073884815
-0.013278322 0.15823698 -0.62833714 -0.2553085 0.037188146 0.3056091 0.057630394 0.29165122

running_var f4 [16]
00000000: a739 ea3c 2cf2 9d3c a1e9 9a3d 9e11 533e
00000010: 5273 6b3e 02e2 bf3d 6e50 a63d 07cd a73d
00000020: 2e04 bf3e 0223 743d fc6d 033e 5bf0 963e
00000030: bb43 993d 423b 4e3e e99c 793d 8d3f d03c
0.028591944 0.019280516 0.075640924 0.20612189 0.2299321 0.093692794 0.081208095 0.08193403
0.37307876 0.0596037 0.12834924 0.29480252 0.07483622 0.20139793 0.060940657 0.025420928

weight f4 [16, 16, 3]
00000000: a0c8 6f3c 1a55 a9bd 2106 c3bd 88a2 033d
00000010: a31a a53d c8cd 9f3c 961e 01bd e11f dfbd
00000020: c260 7ebd 7ac9 9f3d 2a1f 05be 6003 46bc
00000030: b11d b6bd 9eb1 f3bc 806b df3c 1498 8bbd
00000040: c698 123c 4426 2f3d 67cd f3bd a54c 653d
00000050: 8aeb 033e 2464 863d 73e6 8b3d 45bb febd
00000060: 00a5 a53d a453 0ebe 20f1 da3b 2e9c 123e
00000070: 0fa2 0fbe acea f33d f8f0 9f3d 2e56 c03d
00000080: 6869 c13d 97b4 a2bd 9654 55bd 0e13 01bd
00000090: cc79 aa3d 7cad 0abe 9b06 dbbd f094 e03d
000000a0: 2949 073e f8c4 bf3d f676 20bd 8a2e 093e
000000b0: f8e8 00be f080 64bc cf9f 103e d4ef 4b3d
000000c0: 6af6 dabd 2834 efbd ac83 973d c01c b13b
000000d0: 5370 753d 409e 833d 10a5 943d 2613 e0bd
000000e0: 3cbc 31bd 0aee 88bd e481 8fbd 80bd 2c3d
000000f0: d4eb 0d3e 060e cbbd 0726 9bbd 7a4a 5fbd
00000100: 03d5 f93d c847 afbd 228c 853d 8dca db3d
00000110: 74ce 063e f839 8e3d 97d8 a73b 9810 b93c
00000120: b0f4 ecbd 059e f3bd d2c2 1ebd 305d 56bc
00000130: c557 8e3c e0d1 cebb e8a2 0ebe f020 a2bd
00000140: 28a0 bc3c d919 e8bd 5c94 98bd 1493 e3bd
00000150: 185f 3fbd 0660 e53d 8467 8c3d 4070 9a3c
00000160: 2792 373d b8da fc3c 78e7 953d 131d de3c
00000170: 204c 383c 3f0b 87bd c531 9abd 9875 11be
00000180: dcdc 4a3d 9387 35bd b87b eabc 6483 aebd
00000190: ff2d d4bb b04a bfbd d024 343d d271 dc3d
000001a0: 6cb5 7e3d d782 fcbd efd9 b93d acd8 10be
000001b0: 6092 f03b b161 9f3d e005 7d3d 36ac 5dbd
000001c0: a29b 6ebc 3063 e2bd 703f 053d 05fb efbd
000001d0: a07a da3d d441 0b3e 9a03 10be d4b3 c5bc
000001e0: ddd1 85bd 6f09 5e3c 2e40 05bd de53 27bd
000001f0: edcd 82bd 0026 b83b 5e22 0d3e 84f2 b1bc
00000200: 9c83 e43d 6ca6 f43d 568f ebbd fcb3 7cbd
00000210: 6824 94bd 195b 92bd 7a44 6bbd e499 d9bd
00000220: ec79 a9bd eede a43d 880d 003e 1312 b73d
00000230: da7b 41bd b024 f8bd 893c 99bd 8228 68bd
00000240: c873 0bbe a20f bc3d 6a20 26bd 6cab d9bc
00000250: 84c9 02be 27b0 f8bd 25e8 09be 941e 953d
00000260: 8422 963d 1697 34bd 082d 03be 8096 fa3c
00000270: 3028 033c 6944 fd39 2e9c 08be 52dd 0e3e
00000280: 6bfd e1bd 882c f23d 6ebb cd3d aa1d 12be
00000290: c0c2 b43b f46f 30bd d1f7 fdbd d95b 85bd
000002a0: 48b5 8ebc be8d 123e a34d 9cbd 0144 11be
000002b0: 1bcf 7dbc b3dd adbd 7208 9cbd 9aa4 7ebd
000002c0: 6883 b8bd e2ab 2dbd 2faf ae3d 20d0 ac3b
000002d0: a852 c13d 7900 543d 1844 febd b0d5 0abc
000002e0: 6bc4 5a3d b42f 03be 1144 83bd 06c1 853c
000002f0: 3c32 f5bc b6a7 c8bd cf00 733d 8b54 0fbe
00000300: 556d 02be f96b 5dbd f0b3 f43c a850 323d
00000310: 08b2 c8bd 2057 6b3d 4456 613d 5b5a 0f3b
00000320: f2f7 3fbd c808 0c3e 2c06 0bbe a03f c53d
00000330: 4829 48bd 8413 03be 00a3 38bd ae96 913d
00000340: b0ee 0cbe 6687 093e 4ca3 0b3e e8e7 b2bd
00000350: bec3 06bd bc14 ce3d 4103 e3bd 7e45 073e
00000360: c4a7 57bd 76bd a53d 9ac4 a9bd 9532 c0bd
00000370: 09db b1bd b0d3 93bc 38bf 0c3d 7836 dbbd
00000380: 5cba f03d aab5 133e 5a08 ddbd a404 e7bd
00000390: fc6e e43d 9e47 6dbd 680b b73d 12a3 0b3e
000003a0: 5d2b b43d 60bc 293c 2d2c a2bd 360b ad3d
000003b0: 76c1 a53d 3c9b babd cc44 e73b 5a06 46bd
000003c0: c4f6 1f3d 4628 ae3c fcad 22bd e059 abbc
000003d0: 065e f63d 1418 dabc 301b d7bd 0e70 cebd
000003e0: cc70 113e 1055 d83c da27 d63c 2e9c fbbd
000003f0: 18a7 223d 6437 acbd 6d6c 00be cc1e dabc
0.014635235 -0.08268185 -0.09522653 0.032137424 0.08061721 0.019507304 -0.03152331 -0.10894752
-0.062103994 0.078021005 -0.1300017 -0.012085766 -0.08892382 -0.02974778 0.02727294 -0.06816116
0.008947557 0.042761102 -0.11904412 0.055981297 0.1288282 0.06562069 0.06831064 -0.124380626
0.08088112 -0.13899094 0.0066815764 0.1431739 -0.14026664 0.119099945 0.07809633 0.093914375
0.09443933 -0.07944601 -0.05208262 -0.031512313 0.08324012 -0.13542742 -0.10694619 0.109659076
0.13211502 0.09363741 -0.03917595 0.1339666 -0.1258887 -0.013946757 0.14123462 0.049789265
-0.10691531 -0.1167987 0.07398161 0.0054050386 0.059921574 0.06426668 0.07258046 -0.10941152
-0.043392405 -0.06686027 -0.070071965 0.04217291 0.13859493 -0.09914784 -0.075756125 -0.054514386
0.12198832 -0.08558613 0.06520869 0.10731993 0.13164693 0.069446504 0.005122255 0.02259092
-0.11570108 -0.11895374 -0.038760014 -0.013083741 0.017375836 -0.00631164 -0.13929331 -0.079164386
0.023025587 -0.11333055 -0.07450172 -0.11112037 -0.046721548 0.11199956 0.068556815 0.018852353
0.044817116 0.030866012 0.0731954 0.027113473 0.011248618 -0.06593942 -0.07529024 -0.14205015
0.049527034 -0.044318747 -0.028623447 -0.085211545 -0.0064752097 -0.093404174 0.04398042 0.10763897
0.062184736 -0.12329643 0.09074771 -0.14145154 0.007341668 0.07782305 0.06177318 -0.05411931
-0.014563473 -0.11054075 0.0325312 -0.117178 0.1066792 0.1359933 -0.14063874 -0.0241336
-0.06534169 0.013552054 -0.03253191 -0.040851466 -0.063869335 0.0056197643 0.13782641 -0.021722086
0.11157915 0.11945805 -0.115019485 -0.061695084 -0.072335064 -0.07146282 -0.05743835 -0.106250554
-0.08275208 0.08050333 0.12505162 0.08938994 -0.047237255 -0.121163726 -0.07482249 -0.056679256
-0.13618386 0.09182669 -0.040558256 -0.026570998 -0.12772185 -0.121429734 -0.13467462 0.07281223
0.07330802 -0.0440894 -0.12810147 0.030589342 0.008005187 0.0004830689 -0.13340828 0.13951614
-0.11034664 0.118249 0.10045515 -0.14269128 0.00551638 -0.043075517 -0.12400783 -0.06511659
-0.017420426 0.14311883 -0.076319955 -0.14186098 -0.015491272 -0.084895514 -0.07618798 -0.062168695
-0.09009439 -0.04240025 0.08529507 0.005273834 0.094395936 0.051758263 -0.124153316 -0.008473799
0.053409975 -0.12811166 -0.06409467 0.016327392 -0.02993118 -0.09797613 0.059326943 -0.13997094
-0.1273702 -0.05405805 0.029870957 0.04353395 -0.09799582 0.057456136 0.05501391 0.0021873924
-0.04686732 0.13675225 -0.13576573 0.09631276 -0.048867494 -0.12800413 -0.045077324 0.07108818
-0.13762927 0.13430557 0.13636512 -0.08735639 -0.032901518 0.100625485 -0.11084605 0.13210103
-0.05265023 0.080927774 -0.08289452 -0.09384648 -0.08684356 -0.018045276 0.034362048 -0.107037485
0.11754295 0.14424768 -0.107926086 -0.11280182 0.11153981 -0.057929628 0.089377224 0.13636425
0.087973334 0.0103598535 -0.07918582 0.08449404 0.0809354 -0.0911164 0.007057762 -0.0483459
0.039053693 0.021259438 -0.039716706 -0.02091688 0.12029652 -0.02662281 -0.105032325 -0.100799665
0.14203185 0.026407748 0.02614205 -0.12285648 0.039710134 -0.084090024 -0.12541361 -0.026626013

bias f4 [16]
00000000: e8ce 5b3d d876 933d d81f 373d 7851 993d
00000010: 60a5 c83d 5080 07bc 8d35 0dbe 4fa6 c3bd
00000020: 2ee7 a03d 689b 433d ca0b bcbd 8cc5 ddbd
00000030: dd5a b5bd 042c fa3d a1f1 4fbc 07c6 ebbd
0.053664118 0.07200402 0.044708103 0.07486242 0.09797168 -0.008270338 -0.13789959 -0.09553205
0.07856594 0.04775563 -0.09181936 -0.10828695 -0.088552214 0.122154266 -0.012691886 -0.1151238

weight f4 [16]
00000000: 50e4 7f3f 550f 803f 7602 803f 28d5 7f3f
00000010: 74e1 7f3f a8f6 7f3f 0103 803f 80f1 7f3f
00000020: f714 803f b10f 803f 0b07 803f 7105 803f
00000030: 2b09 803f 61e4 7f3f c4fa 7f3f 5414 803f
0.9995775 1.0004679 1.0000751 0.99934626 0.9995339 0.9998574 1.0000917 0.99977875
1.0006398 1.0004789 1.0002149 1.000166 1.0002798 0.99957854 0.9999201 1.0006204

bias f4 [16]
00000000: 4fc1 9ab9 cf5e 093a 1082 14b9 c619 34ba
00000010: 5121 b1b9 dfa0 0bb9 da87 ef38 7ac3 b1b8
00000020: 828f 153a f7b8 df39 38cc 9439 3b2c 7139
00000030: be55 053a 9b14 beb9 02a1 c8b7 1ae2 d439
-0.00029517195 0.0005240263 -0.00014162832 -0.00068702956 -0.00033784893 -0.00013316002 0.000114217124 -8.476428e-05
0.0005705283 0.00042671684 0.00028380915 0.00023000028 0.0005086324 -0.00036254976 -2.3916833e-05 0.0004060425

running_mean f4 [16]
00000000: 9de2 8b3c 42ee 4fbc 7dee f0bd 1a3b 3a3c
00000010: b101 7fbe ba9e 333e c86e 9bbe ec8a 64be
00000020: 97d2 893d bbe6 243d d250 9c3d c1e7 a4be
00000030: 076e febd 5cfc 663e dadf d9bc e05b f03b
0.017075831 -0.012691082 -0.11764238 0.01136663 -0.24902989 0.17541018 -0.30357957 -0.2231862
0.0672962 0.040259104 0.07632603 -0.32208064 -0.1242333 0.22557205 -0.026595999 0.007335171

running_var f4 [16]
00000000: 8582 223e 8f0f 993d 345f 053d b4f6 1d3d
00000010: e83e 183d abf9 903d 20f5 343d 3d09 b83c
00000020: db4e a73c 1eaf 393d ad9e 5f3c 33a6 163d
00000030: 91ea 513c a945 0f3d bf6b 513c 5b1a 573d
0.15870102 0.07473671 0.032561496 0.038565353 0.037169367 0.070788704 0.044179082 0.022465343
0.020423343 0.04533302 0.013648671 0.036779594 0.012812273 0.034978542 0.012782036 0.05251537
