DFA-PS/Experiments/Full-GOP/HK/backup/best/DecisionModel_CalibrationModule.pt (torch, 993514 bytes, 173 tensors)

weight f4 [7]
00000000: 5809 803f 1f1a 803f db0a 803f e579 7e3f
00000010: 6d73 803f ea8d 803f 95f3 7e3f
1.0002851 1.0007972 1.0003313 0.99404746 1.0035225 1.0043309 0.99590427

bias f4 [7]
00000000: 351a be37 b9cf 013a 4e10 0739 9ccb ceb9
00000010: 328d 1dba e8d8 6cb7 2041 afb8
2.2661969e-05 0.00049519126 0.00012880677 -0.00039443083 -0.00060101144 -1.4117199e-05 -8.356781e-05

running_mean f4 [7]
00000000: 41dd 3643 8039 3b43 3663 3243 4bad 074b
00000010: 722c bf50 b500 0041 ce61 113f
182.86427 187.22461 178.38754 8.891723e+06 2.5658888e+10 8.000173 0.56789863

running_var f4 [7]
00000000: f18b 954c 1d5c 9d4c 60bf 8d4c 0182 0559
00000010: 862b 6f64 e82e da46 d701 9e3f
7.840551e+07 8.2501864e+07 7.431654e+07 2.3486945e+15 1.7647632e+22 27927.453 1.2344311

weight f4 [16, 7, 5, 1]
00000000: 8b0a ed3d 569b 2c3e 5778 cc3d 6f26 f03c
00000010: d04c 383d 8694 fdbd ec22 cdbc fab9 eebd
00000020: 9e43 ee3d b09e 183d 1406 0bbd 9251 253d
00000030: d5c0 8ebb 2d08 22be 0e35 a2bd 05b8 23bd
00000040: db8d d9bd c9fd c53d eb2c 0cbc 8168 80bd
00000050: 8416 433c a4bd 6cbb 0526 bb3d 11ce 8e3a
00000060: 6b65 81bb b05d f1bd c969 9fbd 227f 673d
00000070: c585 163e 8940 e0bc 713b 8ebd 32d1 263b
00000080: c4af bd3c 7fed 17bd fee7 03be a5bc 583d
00000090: d666 0abd 4466 173e 0953 4a3d 88eb 0ebe
000000a0: 2c4a e13c fb33 fe3c 1be9 133e 679a f7bb
000000b0: 1dfe 773d 89f4 723d 77a8 af3d 14e2 28bd
000000c0: f555 083e dba6 183d 4bd3 b9bd 633f 173e
000000d0: f480 1cbe e32f 513d 2800 9cbc 39c3 cd3a
000000e0: fbdb 9c3d 8d63 e1bd e950 2c3e fdad c6bb
000000f0: 5a02 0b3e 7863 213d 4f2c 103e 9390 04be
00000100: c2ab 743c d725 ba3d 71aa 143d 8239 9cbc
00000110: cc43 213d 6bec ec3d c156 4a3d 167c 80bd
00000120: 1be5 78bd 28e7 133e 79a4 a03d 70cb cfbd
00000130: 5314 d13d f1ea f8bd caac f6bd 1d5f 84bd
00000140: 3802 fabd 77c0 993d 7095 b4bd f7a4 ec3d
00000150: 5ec6 1bbe 58a2 23bd d590 45bd cdd3 b0bc
00000160: 7c04 ce3d c111 a5bd 4af1 8ebd 445f c43d
00000170: 3e82 913d 07af 0cbd c34a 123e a2d8 c33c
00000180: 0201 1c3d 8511 3abd fd26 18be ec9c 82bd
00000190: c9df db3c bad9 fc3d 074c 223e fd28 20bd
000001a0: 287a 2cbe 4ebd 1d3e b8ae 2bbe 2d64 5d3c
000001b0: b334 df3d 3f3e 913d 17c8 a8bc 643c afbd
000001c0: e3e9 efbd 4915 0c3e fadf 163e 5f60 ce3d
000001d0: ad59 7f3c 4853 0cbe fa8d 1fbd 9a92 9fbd
000001e0: d2d3 f9bd 7852 9dbc 8f48 1b3e cffb 25be
000001f0: a7c6 33bd 7ad8 f63d da18 6c3d 31c9 0ebe
00000200: b08d ca3d c6cc 04be b132 a3bd d0b7 e63d
00000210: 4590 6eba f799 bebd 855d c63d 5af5 3fbd
00000220: c49b 4abd 9533 7abb 1fff fc3b aabf 993c
00000230: 7fd8 ed3d ecd6 9e3d 28e1 3eb9 8edb 193d
00000240: 2b46 ed3d 20a6 213e 8b58 23be f0d0 bdbd
00000250: 6666 a6bd d24b 983d 01d2 653d 6eb8 44bb
00000260: 87ce f83d 6a03 0bbe 8770 7b3d 5b42 e0bd
00000270: 8d9f 9bbd 78ae 0b3e 9688 f23d c0dd 253e
00000280: 9c7d 59bd 36f4 d03d 6508 bf3d a9bf 1d3e
00000290: 04be 60bd d7e1 033d e777 623d 5332 febd
000002a0: 803e 073e fce7 04bd ba75 913d 030a 63bd
000002b0: 5c88 1d3b 1e40 14be 5261 db3d bff3 b63d
000002c0: c9a2 243e 810e c9bd 72a0 1d3e e20c e7bb
000002d0: 2b04 20be 4026 f33d d75a bf3a 85e6 50bd
000002e0: 09b6 a6bd 102d c33d 9aab 4dbd 2699 0e3e
000002f0: 9558 fabd d99f 773d ff39 6d39 c333 563d
00000300: a519 193e c128 273e 5bac c7bd 7062 243e
00000310: d38d 22be a497 1dbd 9ce5 0a3e efe1 d23d
00000320: 3fda 23be f1cc a23c 3fe2 8f3c 11f4 91bd
00000330: be3e 27be 3c83 1e3d d90d e0bd b233 5abc
00000340: 1093 23be a9b8 fcbd 3c3b 21be b769 02be
00000350: 3ad0 99bd f775 933d 726f 2cbe dbef 363d
00000360: 0d87 863c 5a47 ae3d 0462 0cbe c5b2 0b3c
00000370: b423 e53d 7674 26be 46ab c03c 63f7 463d
00000380: 1fdd a6bd f810 11be 4c15 c33d e7f9 f53d
00000390: e74a 15be 04c7 17bd c552 2dbd 6246 0f3e
000003a0: 624c 58bd 5129 023c eb12 d53d 7887 50bd
000003b0: 5570 8fbd 6abb a9bd 64ef 6a3d 310e cf3c
000003c0: aced 31bc b3b9 1fbe 1737 94bd 5ec3 d1bb
000003d0: b0f0 1a3e 7e68 4abc 50cf 2a3e 2597 113e
000003e0: 3bbb 04be 68b0 03be aa32 9bbc a5c5 d2bd
000003f0: 9eff 1d3e 9fb5 213e 97d3 53bd 51c0 9dbc
0.115742765 0.16856131 0.099838905 0.029315202 0.04499513 -0.12381844 -0.025041066 -0.11656566
0.11633991 0.03726071 -0.033941343 0.040360995 -0.0043564835 -0.15823431 -0.07920276 -0.039970417
-0.1062276 0.09667546 -0.008555631 -0.062699325 0.011907224 -0.0036123777 0.09138111 0.0010895153
-0.0039488575 -0.117854476 -0.07783849 0.056517728 0.14699467 -0.027374523 -0.06944931 0.002545428
0.0231551 -0.03709173 -0.12881467 0.05291428 -0.03378948 0.14785105 0.049395595 -0.13957036
0.027501188 0.031030646 0.14444391 -0.007556248 0.060545076 0.05931524 0.08577054 -0.04123123
0.1331404 0.0372685 -0.09073504 0.14770274 -0.15283567 0.05107106 -0.019043043 0.001569844
0.076591454 -0.11005316 0.1682774 -0.0060632215 0.13575116 0.0394015 0.14079402 -0.12945776
0.014933528 0.090892486 0.036295358 -0.01907039 0.039371297 0.11568531 0.04939914 -0.062736675
-0.060765367 0.14443648 0.07843871 -0.101462245 0.10208955 -0.121541865 -0.12044676 -0.06463454
-0.122074544 0.07507413 -0.088175654 0.11554902 -0.1521239 -0.039949745 -0.048233826 -0.02158537
0.10059449 -0.08060027 -0.06979616 0.09588483 0.0710492 -0.034346607 0.14286332 0.02390701
0.0380869 -0.045426864 -0.14858623 -0.06377587 0.026840108 0.123462155 0.15849315 -0.03910159
-0.16843474 0.15404245 -0.16765869 0.013512653 0.108987235 0.070919506 -0.020603223 -0.085564405
-0.11714532 0.13679995 0.14733878 0.10076975 0.015585345 -0.13703644 -0.03895376 -0.07791634
-0.12198605 -0.019204363 0.15164398 -0.16209339 -0.04389062 0.120530084 0.057640888 -0.13943936
0.09890306 -0.1296874 -0.07968653 0.11265528 -0.00091004773 -0.0930671 0.09685806 -0.046864845
-0.049464956 -0.0038177718 0.0077208425 0.01876815 0.11613559 0.07755837 -0.00018203689 0.0375629
0.11585649 0.15786028 -0.15951745 -0.09268367 -0.08125 0.074363366 0.05610848 -0.0030017155
0.12148767 -0.13575521 0.06138661 -0.10950156 -0.07598791 0.13640773 0.11842458 0.16197872
-0.053098306 0.102028295 0.09327773 0.15405144 -0.054868713 0.0321978 0.05529013 -0.12411942
0.13207436 -0.0324478 0.07102533 -0.05542947 0.0024037575 -0.14477584 0.10711922 0.0893321
0.16077723 -0.098172195 0.15393236 -0.0070510963 -0.1562659 0.1187253 0.0014599216 -0.05100109
-0.08140189 0.09530079 -0.05021248 0.13925609 -0.12223927 0.060455177 0.00022623687 0.052295458
0.14951189 0.1632414 -0.09749671 0.16053176 -0.15874414 -0.038474694 0.13564152 0.10297
-0.16001223 0.019873114 0.017563937 -0.0712663 -0.16332528 0.038699374 -0.10940141 -0.013317989
-0.15974069 -0.12339909 -0.15745252 -0.1273564 -0.07510419 0.072002344 -0.16839388 0.044662338
0.01642182 0.08509703 -0.13709265 0.008526509 0.111884505 -0.16255364 0.02351917 0.04857577
-0.08147644 -0.1416663 0.095255464 0.12010556 -0.14579354 -0.03705503 -0.042315263 0.13991693
-0.05280722 0.007944421 0.10403999 -0.050910443 -0.070038475 -0.082876995 0.057357207 0.025275322
-0.010859888 -0.15598182 -0.0723707 -0.0064014634 0.15130877 -0.012354014 0.16680646 0.14217813
-0.12962048 -0.12860262 -0.018945057 -0.10291604 0.15429541 0.15791939 -0.05171546 -0.019256743

bias f4 [16]
00000000: f2ee f03d fc2e 13be 47de 19be 72d1 973d
00000010: 9b84 be3d 5037 f7bd 1489 7dbd 72b7 78bd
00000020: 6c2a febc 0252 00be cd04 8b3d bf60 87bc
00000030: 928d 943d dc64 f6bd 739e 253c c466 d23d
0.11764325 -0.14373392 -0.15026198 0.074129954 0.09302636 -0.12071097 -0.061898306 -0.060721822
-0.031026088 -0.12531283 0.06788025 -0.016525624 0.07253565 -0.12030956 0.010108578 0.10273507

weight f4 [16]
00000000: f5d0 7f3f 63b6 7f3f 2b6b 7f3f 9713 803f
00000010: 9786 7f3f 8209 803f 96d1 7f3f d02a 803f
00000020: 5fab 7f3f 3cee 7f3f abd0 7f3f c3a8 7f3f
00000030: 66f3 7f3f 0569 7f3f 0d22 803f 9287 7f3f
0.9992822 0.99887675 0.997729 1.0005978 0.9981474 1.0002902 0.9992918 1.0013065
0.99870867 0.9997289 0.9992778 0.99866885 0.9998077 0.9976962 1.0010391 0.9981624

bias f4 [16]
00000000: 0915 e0ba e653 83ba 0840 16bb 213a bf3a
00000010: 04ea 97ba 3e22 843a c1c0 0f3b 8d09 d5ba
00000020: e47c a2ba aad9 123b ef39 69b9 c3d4 aa3a
00000030: 791a 4f3a 5379 5839 04a0 fe39 ddff a1ba
-0.0017096113 -0.001001951 -0.002292635 0.0014589467 -0.0011590128 0.0010081006 0.0021934959 -0.0016253457
-0.001239684 0.002240757 -0.00022242194 0.0013033379 0.0007900368 0.00020644562 0.00048565876 -0.0012359578

running_mean f4 [16]
00000000: db2b f03d fc35 13be 254b 1cbe 865a 9b3d
00000010: c307 be3d 11dd fabd 4f68 81bd 7b8a 7ebd
00000020: 07b5 f2bc e32f 01be 9b61 8d3d bd2f 8abc
00000030: b0a0 933d 5ead fabd ea21 0d3c 11fe d13d
0.11727115 -0.14376062 -0.1526304 0.07585625 0.09278824 -0.12249196 -0.063187234 -0.062143784
-0.029627336 -0.12615924 0.069033824 -0.016868467 0.07208383 -0.122400984 0.008614043 0.102535374

running_var f4 [16]
00000000: 8e9e 183e f978 a23e b4e6 963e 7102 c33e
00000010: cf00 d53e c3e8 a33e 4664 933e 5555 7b3e
00000020: 69a4 9f3e e6b6 cd3e 4ce8 a13e ea52 9b3e
00000030: 1aa0 a93e 09ce f03e 6148 563e 46e5 c03e
0.14904234 0.3173292 0.29472888 0.380878 0.4160218 0.3201352 0.2878744 0.2454427
0.31180122 0.40178603 0.3162254 0.30336696 0.3312996 0.47032192 0.20926048 0.37674922

weight f4 [16, 16, 2]
00000000: 063d 10be e9ad 0c3d fe2c d4bd 09f0 e5bc
00000010: 67e7 debc cf27 9d3c efc9 043e 2ed5 9c3d
00000020: debe 0c3e 0676 13be c8d7 b03d 0faf ef3d
00000030: f6f1 11be 32b6 863d 0efc f33c 448b 183e
00000040: e4c6 13bd 1836 31be 4dcb 36ba 8255 45ba
00000050: 96e0 d83d 2a45 003d baa1 8cbd b308 fbbd
00000060: b5a2 dc3d 7fb5 abbc 8c8e e5bd 075c 233c
00000070: 1677 3fbc c89f 333e e4ff d33d 3f27 963d
00000080: bbba d1bd 3937 04bc 144c adbd 29d9 ebbd
00000090: 620d f33d 8f28 1f3d 768e 3dbd b12f 00be
000000a0: 0c3e 4b3d e7f8 02be b685 2abd 082f 29be
000000b0: 7b85 bcbd 9ebd e6bc 39d5 26be 2b57 023c
000000c0: 4a9c 5a3d 27f3 f23d a787 6cbd eaac dabc
000000d0: 890b cb3d d2ed 86bd bd5a 99bd cf6a 963d
000000e0: 9c6b fd3c 8823 c23d 65fe b93d 55f8 25be
000000f0: 6a1d 0d3e 9261 cbbd 2491 acbd 13ad 393d
00000100: 09ed 3d3b 9a71 3b3d 1676 a33c 5188 853d
00000110: 6580 cc3c 6ace 273e 4ac7 c73d 6982 c9bd
00000120: 69bb cd3d 0ef6 d03d 3214 03be 9d8e 1d3e
00000130: c871 c9bd 52e8 f53d e090 32bd 6352 e53c
00000140: ea58 273e 1837 bc3d 2785 ccba 36ba 0bbe
00000150: ab0e 1c3e c20f 8b3d f087 e83d 20cc 1a3d
00000160: bdfd 0fbe bbf0 8f3d d867 153e de30 f4bd
00000170: 7352 4d3d 1037 21be 3f09 333e 7dca a63d
00000180: 2e4d 16be 1bee 71ba 456a 963d f5d5 1ebe
00000190: 57a7 063e 0d82 023d 8a70 80bd 0396 4fbd
000001a0: f6e7 9e3d 6b85 eabd 0e15 153e 1a5f 833d
000001b0: 10ad 223e 5d91 efbd 9620 a93d d7b9 0cbe
000001c0: ad0d 3f3c 6fb0 8d3d 5ba1 d83d 8759 d73d
000001d0: 260a a43d 85fe 89bd 9391 c73d 02e5 663d
000001e0: dd1b f53c 105f 803b ad0e 53bb aefa 563d
000001f0: b6f8 0fbe 9b70 69bd 4288 22bd 9fdd 943d
00000200: b1c5 dd3d d0d5 d8bd fcbf 3bbd ad78 843d
00000210: 91fb 183d 690c 13be c15c 1a3e 952d f43d
00000220: fc29 cdbd 2ad0 98bc ca01 eb3d 4c0a a43d
00000230: 3ecb 13be d8b4 50bc 7d44 b23d 9e05 f73d
00000240: 3e80 943d 0f49 1a3e 42bd 22be 6df2 d13d
00000250: 814a 8e3d 98fa abbd 9244 0bbe fafd e7bd
00000260: 6953 7e3d d123 04bd 0f69 cbbd 52b9 ffbd
00000270: 1e9c 1e3e 3987 11be 20e1 203e 97f5 0cbe
00000280: aba2 81bd 9b29 653d 9963 09be f1e8 1cbe
00000290: 9a76 783d 9263 563d 5d84 b7bd 644d 5e3c
000002a0: 9e08 143e 0e8f af3d 79d2 b33d 0aba 253e
000002b0: 2d42 083e 4f89 903d 56f3 013e 0019 b8bc
000002c0: 0ec9 0d3d 315a 10bd cf60 ee3d 011e 3ebb
000002d0: 1a82 153e 2d42 63bb 9d54 e4bc 2db3 9ebd
000002e0: 9cf3 2ebb ec1d b8bd 175e f4bc fb5d efbd
000002f0: f184 eabd 7a95 cd3d 6008 d73c b818 863d
00000300: 2494 9a3c b264 8ebc 0cd5 c8bd 1c96 033e
00000310: 7315 2a3c 44ef 92bc b025 2cbe ed16 333e
00000320: 2b37 1fbe 4462 c0bd 00a3 34be aed9 ea3d
00000330: 21fb 25be 6801 163c bc7c 713d ae46 91bb
00000340: 3897 1f3e 2ef7 0c3d 4cc1 fb3d 4c05 da3c
00000350: 320d ec3d aa0e 773d d45a 69bd 6b7c 0d3e
00000360: 7dbc bd3d d746 16be 6f59 d4bd 124d 18be
00000370: 5ea4 0fbe 5878 22be ad62 0fbe 56df eabd
00000380: 8e24 3abd 28d9 1f3e e0a3 f4bd 7533 91bd
00000390: 8aa5 23be b642 1cbe 9db3 bcbd 8514 22be
000003a0: 1467 213e 21b7 323d 1d2f aa3d 485a eb3d
000003b0: d2e6 2f3e 8cf1 1abe b726 1abc 27b7 97bc
000003c0: fc54 9f3d d953 303e 6a4a 873d c819 5c3d
000003d0: 3bad c6bd 3f58 8b3d 14e9 26be bfa9 b93d
000003e0: 220d c73c 861c 343e 494f bebd afe8 113e
000003f0: 5bd8 e7bd c518 263d cfb0 ab3d 409e fdbd
-0.14085779 0.03434554 -0.10360144 -0.02806856 -0.02720995 0.019184021 0.12967657 0.07657848
0.13744685 -0.14400491 0.08634907 0.11703312 -0.14252457 0.0657772 0.029783275 0.14896876
-0.03607835 -0.17305791 -0.0006973043 -0.0007527695 0.10589711 0.03131596 -0.068667844 -0.122575186
0.107732214 -0.020960568 -0.11208829 0.0099706715 -0.011686107 0.1754142 0.10351542 0.07331704
-0.10240694 -0.008069807 -0.084617764 -0.115160294 0.11867787 0.03885704 -0.04627844 -0.12518193
0.04961972 -0.12790261 -0.041631423 -0.16521847 -0.09205147 -0.028166588 -0.16292275 0.007955353
0.053371705 0.11862784 -0.057746556 -0.02669378 0.099143095 -0.065883294 -0.0748801 0.07344591
0.030935101 0.09479433 0.09081725 -0.16208012 0.13780752 -0.099307194 -0.08426121 0.045331072
0.0028980395 0.045762636 0.019953769 0.06520141 0.024963567 0.16387334 0.09754808 -0.09839327
0.10045511 0.10203181 -0.12800673 0.15386434 -0.09836155 0.12007202 -0.043595195 0.027993387
0.16342512 0.09190196 -0.0015603647 -0.13645253 0.1523997 0.06790115 0.11354053 0.037792325
-0.14061637 0.070283376 0.14590394 -0.11923383 0.050127458 -0.15743661 0.17483996 0.0814409
-0.14677879 -0.0009228901 0.07344488 -0.15511306 0.13149773 0.031862307 -0.06271465 -0.05068017
0.07759087 -0.11451229 0.14558813 0.064146236 0.1588633 -0.11697648 0.082581684 -0.13742767
0.011660975 0.06918418 0.10577651 0.10515123 0.08009748 -0.06737999 0.09744563 0.056370743
0.029920513 0.0039175823 -0.0032204792 0.05248516 -0.1405972 -0.056992155 -0.039680727 0.07268833
0.10828722 -0.105876565 -0.045837387 0.064683296 0.037349287 -0.14360203 0.15074445 0.119227566
-0.100177735 -0.018653948 0.114749506 0.080097765 -0.14433 -0.012738429 0.08704469 0.12061618
0.07251023 0.15066932 -0.15892509 0.10251317 0.06947804 -0.08397406 -0.13600376 -0.11327739
0.062091265 -0.03226072 -0.09932148 -0.12486519 0.15489241 -0.1421174 0.15710878 -0.1376556
-0.063298546 0.05594788 -0.134169 -0.15323235 0.060659982 0.05234105 -0.08960793 0.013568256
0.14456412 0.085722074 0.08780379 0.1618425 0.13306494 0.070574395 0.12690482 -0.022472858
0.03461557 -0.035242263 0.116395585 -0.0029009583 0.14600411 -0.0034676895 -0.027872378 -0.07749019
-0.0026695495 -0.08990082 -0.029830022 -0.11687847 -0.11451138 0.10038276 0.02624911 0.065476835
0.018869467 -0.017382 -0.098062605 0.12850231 0.01038109 -0.017936356 -0.16811252 0.17489214
-0.15548389 -0.09393743 -0.17640305 0.114673 -0.1620908 0.009155609 0.058956847 -0.0044334745
0.15585029 0.034415416 0.12292728 0.026613854 0.11525954 0.06031672 -0.056971386 0.13816993
0.09264467 -0.14675461 -0.103686206 -0.1487315 -0.14027545 -0.1586622 -0.14002486 -0.11468379
-0.045445018 0.15610182 -0.11945319 -0.07089893 -0.15981117 -0.15259823 -0.09213946 -0.1582814
0.15761977 0.043631677 0.083097674 0.11491829 0.17177895 -0.15131205 -0.009408644 -0.018519951
0.07779881 0.17219485 0.0660599 0.053735524 -0.0970101 0.06803941 -0.1629985 0.090655796
0.024298254 0.17589006 -0.09292466 0.14248918 -0.113205634 0.040550966 0.08383333 -0.123836994

bias f4 [16]
00000000: 737b 493d 8235 0e3d d90a eb3d 39c7 e13d
00000010: c65f 78bc b44f 1b3c d3d5 223e 5189 0d3e
00000020: 8d50 9c3d 948c 98bc 611e cd3d d28c 1e3e
00000030: 1271 23be 9700 be3d 0186 243e a392 f6bc
0.049189996 0.034718998 0.114766784 0.11024327 -0.015159553 0.009479452 0.1590188 0.13821913
0.07632551 -0.01862172 0.1001556 0.15483406 -0.15961102 0.09277456 0.16066743 -0.030099219

weight f4 [8, 16]
00000000: 3e16 4bbe 884c 1dbd 22dc 29be 61bc 573d
00000010: 9d36 8a3d f80c d2bd bedd 71be 3510 1cbe
00000020: 71ae cf3d 75f0 0bbe 8758 df3d 7040 ddbd
00000030: 0873 64be be61 32be 5afe 29bd 05f9 74be
00000040: 1b3e dabb cce3 57be ad6a 193d 8370 45be
00000050: a813 47be 67db 6ebe 8990 75be fe10 753c
00000060: f6c8 e8bd 7df8 bebb 42c1 c8bc 037e 173e
00000070: c324 ee3d 8a06 53be ffa0 0f3e 7f6d d23d
00000080: f371 40be da93 563e 6576 46be c349 3c3e
00000090: 2b9a 5c3e 0af8 563d f2d7 efbd d312 063e
000000a0: 140c 5fbe f44e 27bb e5fd 2ebe f328 093d
000000b0: 9ee9 a6bd bb5c 3d3d dbd5 0dbe bebf 80bc
000000c0: 8242 803d b8c5 8a3d 4eb2 443e 7736 253e
000000d0: 889e bf3c 1e75 3f3e 4c21 22be 4123 c33c
000000e0: 3422 11be 643d cebc 7770 053e 6ac9 0ebe
000000f0: 905a 85bd ba17 163b f478 6dbe a9ef dbbd
00000100: 68e6 2e3e fd17 733d 1032 29bd deed 103e
00000110: 2bef 6abe a2ff 303e 7e21 13be 9d34 cfbd
00000120: 0a32 13be 831a 1dbe d5bf 6b3e a62e 653e
00000130: dc97 5cbe ecaa 5d3d c3bb da3d 7f6a 633e
00000140: 597a 65bc 92ef 603c 2d43 43be 8304 02be
00000150: 890f b3bd dd7f e9bd 1523 dfbd bb44 413d
00000160: 13fe 183e 4ff6 5ebd 4a7b 84bd 0654 c2bd
00000170: 685b 863d 5848 a4bd cb7f bebc e6c4 6a3e
00000180: b9d8 153e 5a35 61be d378 64be 6470 943d
00000190: 9864 8ebb e9a1 5f3e 655d f13d 1ecd 79bd
000001a0: 6119 003c 9ece 4ebe 4f38 0ebd 728c 493e
000001b0: 75cc 723e da8f f73d 10ab 183e 8cbf 9abd
000001c0: 8cf6 a73d eafb 373e 673a 51bc c5a5 523e
000001d0: 85d8 373e 93c7 353c a51a 0ebe c645 6dbe
000001e0: 52e1 3f3e 9ec9 293e 4bf2 2f3e 3437 073e
000001f0: ccf6 043e 6f15 dabd 6e22 283e 86f4 993c
-0.19832703 -0.038403064 -0.1658788 0.052669886 0.06748698 -0.1025638 -0.23619744 -0.15240557
0.10140694 -0.13665946 0.10905557 -0.10803306 -0.22309506 -0.17420098 -0.041502334 -0.23923118
-0.0066602356 -0.21082991 0.03745525 -0.19281201 -0.19441092 -0.23325883 -0.23980917 0.014957665
-0.11366455 -0.005827962 -0.024506215 0.14794163 0.116281055 -0.20607963 0.14026259 0.10274791
-0.18793468 0.20954838 -0.19381101 0.18387513 0.21543185 0.052482642 -0.1171111 0.13093118
-0.21781951 -0.0025529237 -0.1708904 0.033486318 -0.08150028 0.046231013 -0.1385111 -0.01571643
0.06262685 0.06775993 0.19208643 0.16134058 0.023391023 0.1869702 -0.15833014 0.023820521
-0.14173204 -0.025175758 0.13031183 -0.13944021 -0.06511414 0.0022902326 -0.23190671 -0.10739071
0.1708008 0.05934905 -0.04130751 0.14153239 -0.22942798 0.17285016 -0.14368245 -0.10117457
-0.14374557 -0.15342145 0.23022397 0.22381076 -0.21542305 0.054118082 0.10680344 0.22208594
-0.014006221 0.013728993 -0.19068594 -0.12697034 -0.087431975 -0.11401341 -0.10895363 0.047184687
0.14940672 -0.054434117 -0.06468828 -0.094886824 0.06560403 -0.08021611 -0.023254296 0.22926673
0.14633454 -0.21993008 -0.22311716 0.07247999 -0.004345488 0.21839108 0.11785392 -0.06098663
0.007818551 -0.20196006 -0.03472167 0.19682482 0.23710807 0.120879844 0.14909005 -0.07556066
0.08201322 0.17967191 -0.012770272 0.20571049 0.1795369 0.0110949455 -0.13877352 -0.23171148
0.18738297 0.16580817 0.17182271 0.13204652 0.1298477 -0.106486194 0.16419384 0.018793356

bias f4 [8]
00000000: f019 d23d beab a73d bc0d 183e 5886 94bd
00000010: 9d74 b43d 09b5 483e 4bf8 d73b 3a9d 10be
0.102588534 0.08187054 0.14848989 -0.072521865 0.08811305 0.1960031 0.006590878 -0.14122477

weight f4 [16, 8]
00000000: a7f9 a0be e391 c0bc f0a5 8bbe 7648 603e
00000010: b172 7f3e 27de 573e 4fc9 ea3d f39d 2bbe
00000020: 8d3a 2b3e 6b1f b13e 9e50 873e 6a62 34be
00000030: 11df 64be 96db 543e 6efc 6d3e 0994 623e
00000040: b655 1abe e4e7 a93e 2eab 443e f5e1 9abe
00000050: 9c38 1a3e 5501 803d 8e51 a9bd 5e69 4fbe
00000060: f79e 8fbe 5237 3fbe bee5 9b3e c5fe 653d
00000070: 9363 333e b906 5f3e 5836 39bc 3738 053e
00000080: bcf4 ad3e 19de 803e fd51 6a3e 941b e73c
00000090: 2a6f 86be 157b abbd 11f3 dbbd ed14 02be
000000a0: 7d94 86bd 4fe4 293d f644 853e d511 6dbd
000000b0: e01a 283d 1d05 213e 6373 63be f5a9 9cbe
000000c0: ddc2 6fbd b2d4 0d3e 4509 f63d adba 28bd
000000d0: e346 25be f859 19be d12c 96be 3684 c63b
000000e0: 829d 26be 5907 823e 6a63 db3d f411 28be
000000f0: 2932 373e 41d8 153e 8def a4be abae 46bb
00000100: e5e9 87be d28b ae3e 45f8 f9bd b763 d23d
00000110: 60a4 10bc 1b82 493e 6668 febb a5e0 9ebe
00000120: f2cf d93d e05b b03e a6f5 48be 0cc8 a53d
00000130: c558 893d 0d88 743e fc7d 7cbe c350 d23d
00000140: d365 993d a1a0 efbd 25c9 6dbe 927e 94be
00000150: 1692 233e fa17 10be f17e 813d 379e a83e
00000160: a9e7 b2bd 7b25 0ebe 6128 f43c bf0e 193e
00000170: c742 973e 2b3b 2fbe 7390 493e 2016 20be
00000180: 30e0 643e 5a0e 9abd cee7 46be f996 96be
00000190: 2214 7a3e e879 a7bd 1963 74be aae0 0cbe
000001a0: 11cc 0dbe 9dcc 1b3d 1a2b d33d 6638 3ebd
000001b0: c2fd 5abd f1a6 e3bc 7ce0 a13e cae7 3a3e
000001c0: 42f7 9ebe 3be9 bb3d 6219 233e 2c23 473e
000001d0: 7082 0c3e 011d 29be cd3f 053e 411c 073d
000001e0: 6ce0 a23e 3349 883e a359 b5be 6cf2 82be
000001f0: e17e 3b3e 2942 d03d 44ef 563e 870d b33d
-0.3144047 -0.023507064 -0.27275038 0.21902642 0.24946095 0.21080838 0.11464178 -0.16759472
0.16721554 0.34594283 0.26428694 -0.17615667 -0.22350718 0.2078689 0.23240826 0.22126783
-0.15071759 0.3318473 0.19205925 -0.30250517 0.15060657 0.06250254 -0.082675084 -0.20255038
-0.28050968 -0.18673447 0.30448717 0.05615117 0.17518453 0.21779908 -0.0113044605 0.13009726
0.3397578 0.25169447 0.22882839 0.028211392 -0.26256686 -0.083730854 -0.107397206 -0.12703295
-0.06571291 0.041477498 0.26029176 -0.057878334 0.041041255 0.15724607 -0.22211985 -0.30598417
-0.058535445 0.13850668 0.12013487 -0.041193653 -0.16140322 -0.14975727 -0.29331067 0.0060582412
-0.16271022 0.2539623 0.10712321 -0.16413099 0.17890228 0.14633276 -0.32214013 -0.0030316513
-0.26545635 0.3409105 -0.12205557 0.10272925 -0.008828253 0.19678538 -0.00776391 -0.31030765
0.106353655 0.34445095 -0.19624957 0.080947965 0.067063846 0.23880024 -0.24657434 0.1026931
0.074901246 -0.117005594 -0.23221262 -0.29002815 0.15973696 -0.14071646 0.0632304 0.32933208
-0.08735592 -0.13881485 0.02980441 0.14947031 0.29543135 -0.17112415 0.19684009 -0.1563344
0.22351146 -0.075222686 -0.19424364 -0.29412058 0.24421743 -0.08177549 -0.23865928 -0.13757578
-0.13847376 0.03803693 0.10310955 -0.046440504 -0.05346466 -0.027789565 0.3161658 0.18252483
-0.31048018 0.091753446 0.15927652 0.19447011 0.13721633 -0.1651497 0.1301262 0.03298593
0.31811845 0.26618347 -0.3541995 -0.25575578 0.18310119 0.10168869 0.2098971 0.087428145

bias f4 [16]
00000000: ae12 b13d b9f9 8dbe a870 d4bd f7ba a1be
00000010: 1240 763e 750c 1dbe f11a 09be d610 613e
00000020: d798 463e b19b 823e 8e38 e3bd 0830 9abe
00000030: 696c b03e ab83 9bbe 3882 4a3e 137d 98be
0.08646141 -0.27729586 -0.1037305 -0.31587955 0.24047878 -0.15336783 -0.13389184 0.21979079
0.19394241 0.25509408 -0.11094771 -0.3011477 0.3445771 -0.30373892 0.19776237 -0.29782924

weight f4 [1, 2, 7, 3]
00000000: d231 c8bd f5e2 523d ef96 b83d 8850 1bbe
00000010: 13ca 053e da81 bdbc a2a9 ab3d 27c9 f33d
00000020: 9aa3 92bd ebf9 d7bd 017c 1cbe 2e06 04be
00000030: a2c8 b1bd 7a78 27bd 8aab 083e 2b24 4b3d
00000040: f003 463d 810c aabd 12e7 92bd 99f6 80bd
00000050: 73d2 0abe 11c5 8ebd 5105 a43c 64d3 a53c
00000060: d311 d0bd c847 f1bd 1a17 edbd 5b7e 69bc
00000070: 4faf 3bbc f2c5 a3bc 13b9 9c3d 9001 f6bc
00000080: 90db 1a3e 7152 2abd b8ea ad3d 72ca aebd
00000090: 2504 e43c 857a 373d d845 b7bd f029 463d
000000a0: 0bae cbbd 02d6 78bd
-0.097751275 0.051485974 0.09013163 -0.15167439 0.13065366 -0.023133207 0.08381964 0.11903601
-0.07160111 -0.10545715 -0.15281679 -0.12892982 -0.08680846 -0.04088638 0.13346687 0.04959504
0.0483436 -0.08303166 -0.071729794 -0.06297035 -0.13556843 -0.06971181 0.020022066 0.0202424
-0.1015965 -0.11781269 -0.11576672 -0.014251317 -0.011455371 -0.019991849 0.076524876 -0.030030042
0.15122819 -0.04158253 0.08492035 -0.08534707 0.027834008 0.044794578 -0.089488685 0.04837984
-0.099453054 -0.06075097

weight f4 [16]
00000000: 361f 803f 5537 803f 350e 803f 361d 803f
00000010: 161f 803f 37be 7f3f 5382 7f3f 9231 803f
00000020: 6c19 803f b87c 7f3f 3b7d 7f3f fb94 7f3f
00000030: 3bfe 7f3f f9fe 7f3f f9c8 7f3f 1d18 803f
1.0009525 1.0016886 1.0004336 1.0008914 1.0009487 0.9989962 0.99808234 1.0015128
1.0007758 0.9979968 0.9980046 0.998367 0.999973 0.9999843 0.99916035 1.0007359

bias f4 [16]
00000000: bff5 5db9 f30e e0b9 5091 7c3a 6bc6 543a
00000010: 4bbd 313a ccbf 083a 203c 1f36 d178 ad37
00000020: 1149 8e3a e012 23ba 7175 8dba 91c8 8c39
00000030: 5daa 113b 30fa 053a f37f 053a 90d8 33b8
-0.0002116775 -0.00042735747 0.00096346904 0.0008116725 0.0006780221 0.0005216568 2.3727844e-06 2.0679467e-05
0.0010855516 -0.0006220769 -0.0010792447 0.00026852314 0.0022226789 0.0005110828 0.0005092613 -4.2878615e-05

running_mean f4 [16]
00000000: 2f94 073d 1c17 f73c afb1 c43b 8eee e13c
00000010: 9e1f 1d3d 9462 6d3c c096 e33c 8ffd 993c
00000020: 2aa1 a23c 3e7d 8b3d 721d b53c e298 003d
00000030: af51 023c 2bf0 013d 4c2f 713d 39ec 553c
0.033100303 0.030162387 0.006002627 0.027579572 0.03836023 0.014488835 0.027781844 0.018797664
0.01985224 0.068109974 0.022108767 0.0313958 0.007954045 0.031723183 0.058882996 0.013056808

running_var f4 [16]
00000000: 8cfd a23b 07a1 2c3c 2c5b 9539 1c0a 313c
00000010: b029 813c 998d c43a 4607 323b 2977 fd3a
00000020: 9301 093b 2bec 383c 1c0c 2d3b 0a9a b33b
00000030: 00b8 1a3a f1cd 573b a609 ee3c b014 3b3a
0.004974073 0.010536439 0.00028487423 0.010805633 0.015766948 0.0014995813 0.002716498 0.0019337881
0.002090548 0.011286776 0.0026404923 0.0054810094 0.0005902052 0.0032929147 0.029057335 0.00071365666

weight f4 [32, 16, 3, 3]
00000000: 0b76 76bd 3db7 d5bc 9493 25bd f896 9a3d
00000010: 0870 803b 7c8a 07bd afe2 25bd 8d77 d83c
00000020: 8bac 98bd 3d36 743c acf4 343c 3746 813d
00000030: aeea 063d d7de d53c c94b 4d3d 9a60 39bd
00000040: 36ae fabb e508 9ebc 3a40 8fbd 82a0 e2bb
00000050: 2d27 1d3d def0 ff3c 2ded 02bc 4041 98bd
00000060: e49f 6b3c 07ec a43d 1672 a9bc 178f 24bc
00000070: 09f7 4a3c 055a b7bc 1683 273d 03c7 423d
00000080: 901a c73c 4a03 07bd 469d 843d 7c5e 9c3a
00000090: 12d4 46bd 37f6 ba3c 2315 1a3d de4b 3c3c
000000a0: 5f23 4a3d 3022 3ebd ae36 d43c 1f73 983d
000000b0: 903e 533d 9e72 9d3d 89c7 1dbd 8602 5c3d
000000c0: 2e17 b7bc 98c9 96bc 6a68 903d c2f0 85bd
000000d0: 3bbe a3bb 1ad2 983d 63a7 7abc 24f7 623d
000000e0: 008a 70bd 29ea 063d 213e f1bc 3925 323d
000000f0: b985 963c c656 b4ba bf44 463d 57b0 a83d
00000100: e220 db3c 4230 a13d 2b56 14bd 6fc4 abbc
00000110: 9401 ab3d 5836 86bd bd03 dc3c bf35 0e3d
00000120: 929e 9f3c d11b 523d 8b37 89bd 70ac c4bc
00000130: 4966 a13a 4b3b 2f3b 7689 72bd 74d5 ab3c
00000140: 2d90 49bd 7281 873d 2707 21bd a575 68bd
00000150: 5ac3 03bd 3fa5 a73d 639c 7dbd eb99 a23d
00000160: 5f49 81bc c2d7 203d 8de6 25bd b59d c43c
00000170: 0526 193d 8d02 86bd 1b17 58bd cdac 0fbd
00000180: f030 3dbd bdec 3d3d e628 903d 4893 c03c
00000190: 4e9d 0abd 9606 343c fe0b bb3c 86ba 103d
000001a0: 4c4f a63d fb43 44bd af54 6c3c 516c 173d
000001b0: 6d79 2ebc ec51 b2bc 4baf bc3c f6a5 4ebc
000001c0: 4f73 6dbc b660 a1bd 0f83 043d 50a2 a03c
000001d0: d287 da3b e59e 113d b54b 52bd 3514 08bc
000001e0: c601 393c 38d6 823d c0e2 413c c6b2 303d
000001f0: 8e65 96bd c974 a03c 45e4 093d c003 0b3d
00000200: 788c a43d bdd2 de3c 5d6e 143d 7f2c a53d
00000210: 0ee7 49bc 7163 71bd d193 34bc 8d77 06bd
00000220: 89b1 8fbc 420d 96bd f1b6 a43c 6b8d cdbb
00000230: 1315 a33d ff57 4a3d a8b8 7e3d 545f 85bc
00000240: 26e8 bb3c 647f 963d d904 fc3b b42b 843d
00000250: 0a41 7e3d 1cce 9cba bc77 a5bc b4d1 173d
00000260: c770 58bc 3d79 1a3d f728 473d d20d 16bd
00000270: ab64 a7bd bdea 8d3d 3323 8c3c 6986 2cbd
00000280: 6cf2 123c 7026 a63d fd9b 7a3d eb52 523c
00000290: d797 813d 5aa1 4abd 4e0b 97bd 5ddb 903b
000002a0: a4a5 1abc 63a1 f5bc bd90 a13b 5388 08bd
000002b0: 16e7 00bd 3d92 c0bb 6834 9b3c 192c 46bd
000002c0: d615 27bd 0a3d 01bd 3f99 d7bc 9ae1 353b
000002d0: 145b 8bbd 316d 5bbd c255 9b3d 2841 86bd
000002e0: 5f2d 363d 391e 3a3d f50d 7f3d 12aa 8c3d
000002f0: 7c89 acbc 5ea4 3a3c 1d72 db3c 25f2 57bd
00000300: 041c aebc cb57 c1bc 8de0 d2ba 797e 393d
00000310: 1e56 dfbc f736 4fbb 973e a9bc afd0 933c
00000320: 8529 383d 0633 02bd 126d 733d 3ec9 9bbd
00000330: 09de ddbc 1b4b 883d 43c7 223d 02bf 3e3d
00000340: b6f7 79bd a59e 86bd 71ff 943d 2ff7 8b3d
00000350: ac27 a63d ba64 953d 5ab7 0fbd 3e65 2d3d
00000360: 584e 8fbd 53ca 9bbd b3a7 6dbc 202a 88bb
00000370: 7fce a9bb 365e 823d da57 e33c 7c63 6dbd
00000380: 7105 4dbd 1a0a 673d 1ef3 08bd eb7a dbbb
00000390: 6ae8 8b3d fbf8 10bd 0a19 92bd 1a22 8f3d
000003a0: caad 5f3d 379b 0f3d b98c 0bbd 086e 053d
000003b0: 961d 383c b118 ac3d bf21 063d 0deb 903c
000003c0: d0da 87bd 321f f43b e9a4 30bd 0f31 683d
000003d0: f10d 20bd 1bbc da3c e4b8 dd3c 5ed2 253d
000003e0: e8f7 0b3c ed05 133c a25d 54bd 63fd 26bd
000003f0: 6ee2 3dbd d792 e73a a838 0e3d 80e4 713d
-0.06017117 -0.026088351 -0.040423945 0.07548326 0.003919605 -0.033091053 -0.040499385 0.026424194
-0.07454785 0.01490551 0.011044662 0.063122205 0.03293865 0.026107235 0.050121102 -0.045258142
-0.007650162 -0.01929135 -0.06994672 -0.0069161067 0.03836744 0.031242784 -0.007991117 -0.074343204
0.014381383 0.08052831 -0.020684283 -0.010043881 0.012387999 -0.022381792 0.040896498 0.047553074
0.024304658 -0.03296212 0.0647531 0.0011930014 -0.04854209 0.022822483 0.037617814 0.0114926975
0.04935014 -0.046419322 0.02590498 0.074438326 0.051573336 0.07687877 -0.03852037 0.053713344
-0.02234992 -0.018406674 0.070511654 -0.065400615 -0.0049970425 0.07461949 -0.015298697 0.055411473
-0.058725357 0.032938156 -0.02944857 0.04349253 0.01837431 -0.0013758771 0.048405405 0.08236759
0.026749078 0.078705326 -0.03621499 -0.02096769 0.083499104 -0.06553334 0.026857251 0.034719225
0.019484792 0.05129606 -0.06700047 -0.024008006 0.0012313809 0.0026738222 -0.059213124 0.020975806
-0.049209762 0.066164866 -0.03931346 -0.05675282 -0.032168724 0.08185815 -0.06191672 0.07939514
-0.015782056 0.039268263 -0.040503073 0.024000982 0.037389774 -0.06543455 -0.05275641 -0.035076905
-0.04618925 0.04636835 0.07039051 0.02350773 -0.033841424 0.010987898 0.022832867 0.035334133
0.081205934 -0.047916394 0.014424487 0.036968533 -0.010649067 -0.021767579 0.023032805 -0.01261281
-0.014492824 -0.07879774 0.03235155 0.019608647 0.006669023 0.035551924 -0.05134173 -0.008305599
0.011291927 0.06388515 0.011833847 0.04313924 -0.07343589 0.019586938 0.03366496 0.033939123
0.08034605 0.027200097 0.036238063 0.080651276 -0.012323154 -0.058932725 -0.01102157 -0.032828856
-0.01754071 -0.073267475 0.020106765 -0.006272962 0.07963004 0.049400326 0.06218782 -0.016280808
0.022937845 0.073485166 0.0076910076 0.06453648 0.062073745 -0.0011963281 -0.020198695 0.037065223
-0.013210482 0.037713278 0.04862305 -0.036634274 -0.08173498 0.069295384 0.017106628 -0.04212037
0.008968931 0.081128 0.06118392 0.012837152 0.06327789 -0.049470283 -0.07375203 0.0044206814
-0.009438906 -0.029984182 0.004930584 -0.033333134 -0.03147038 -0.005876808 0.018945888 -0.0483819
-0.04079231 -0.031552352 -0.02631819 0.0027752877 -0.06804481 -0.05357093 0.075847164 -0.06555396
0.044476863 0.04543898 0.06226917 0.06868376 -0.021061651 0.011391727 0.026787812 -0.05272116
-0.021253593 -0.023601433 -0.001608865 0.04528663 -0.027262744 -0.0031618455 -0.020659728 0.018043844
0.04496147 -0.03178694 0.05943019 -0.07606743 -0.027083414 0.0665495 0.039740812 0.046568878
-0.06102725 -0.06573228 0.07275284 0.06834256 0.081130356 0.07294603 -0.035086967 0.04233288
-0.06997365 -0.0760695 -0.014505315 -0.0041554123 -0.005182087 0.063656256 0.027751852 -0.057956204
-0.050054017 0.056406118 -0.03343498 -0.0066980026 0.06831439 -0.035393696 -0.07133682 0.06988926
0.054609098 0.035060134 -0.03406975 0.032575637 0.011237523 0.08403147 0.032747027 0.017690206
-0.06633532 0.007450008 -0.04312602 0.05668741 -0.039075796 0.026701024 0.027065702 0.040483825
0.008542992 0.008973581 -0.051847108 -0.040768992 -0.04635852 0.0017667663 0.034722 0.059055805

bias f4 [32]
00000000: c254 513d 7dae a83b 3d56 473d 07ab f9bc
00000010: 2b5a 2cbd 4fa6 853d 0528 2b3d 6c61 0d3c
00000020: b18f da3c 076c a93b ce76 bb3c 5ee5 6dbd
00000030: 2164 de3c c728 5e3d 4c7e 57bc ccd2 943c
00000040: b4b0 a63d 6e55 31bd d944 3e3b 9184 9cbd
00000050: 0621 11bb 9518 a13d 0a48 95bd c403 9d3d
00000060: dc0d 363d 7e26 a53c 1a05 6bbc 1477 64bc
00000070: a435 643d 9b1c fc3b 6c7f a4bd d791 87bd
0.051106222 0.0051477537 0.048666228 -0.03047706 -0.04207818 0.065258615 0.041786212 0.008629184
0.026679846 0.0051703486 0.022883799 -0.05808007 0.027147355 0.054238107 -0.01315267 0.018166922
0.08139172 -0.043294363 0.0029032736 -0.076424725 -0.0022144928 0.07866017 -0.07289131 0.07666734
0.04444681 0.020159956 -0.014344478 -0.013944406 0.05571522 0.0076938397 -0.08032116 -0.066196136

weight f4 [32]
00000000: 9628 803f e2e8 7f3f c023 803f 090c 803f
00000010: 80c8 7f3f edbd 7f3f 7cc5 7f3f 1db6 7f3f
00000020: 30f7 7f3f 2a0f 803f ac0b 803f e7e3 7f3f
00000030: 6b1b 803f b310 803f 2430 803f 0f76 7f3f
00000040: e3f5 7f3f 469f 7f3f 8cb5 7f3f 4720 803f
00000050: 7c4f 803f c825 803f 3100 803f e998 7f3f
00000060: f1be 7f3f afa8 7f3f fb66 7f3f 2612 803f
00000070: 4907 803f 07f5 7f3f beaa 7f3f 2a22 803f
1.0012386 0.99964726 1.001091 1.0003673 0.99915314 0.9989918 0.9991071 0.9988726
0.99986553 1.0004628 1.0003562 0.99957126 1.0008367 1.0005096 1.0014691 0.9978952
0.9998457 0.99852407 0.99886394 1.000985 1.0024257 1.001153 1.0000058 0.998427
0.9990073 0.99866766 0.9976651 1.0005538 1.0002223 0.9998326 0.99869907 1.0010426

bias f4 [32]
00000000: 4363 e2b6 fc6d b539 ab37 083b 893b 23ba
00000010: cbe0 8839 ebb6 f9b7 5031 8d39 6a15 31bb
00000020: b1d5 1539 c89c a938 f681 943a 7013 91ba
00000030: 363d 123a 13c3 cd3a d4d5 ebb9 3dd2 d2ba
00000040: 49c9 a238 3a75 ceb9 450e 703a 3f51 a53a
00000050: b7c5 e539 ccb2 abba bbad 313a a778 24bb
00000060: 2482 2cba 1ec8 e4ba c51c 93ba 9049 9a3a
00000070: 1adc a639 5c70 86ba 084e edb9 d631 77b8
-6.7468804e-06 0.00034604955 0.0020785134 -0.0006226828 0.00026107425 -2.9768291e-05 0.00026930356 -0.002702082
0.00014289354 8.087751e-05 0.0011330235 -0.0011068415 0.0005578579 0.0015698395 -0.00044982007 -0.0016084384
7.762254e-05 -0.00039378722 0.00091574 0.0012612714 0.00043825593 -0.001309955 0.0006777902 -0.0025096328
-0.0006580672 -0.0017454659 -0.0011223784 0.0011771191 0.00031825976 -0.0010256874 -0.000452623 -5.8935802e-05

running_mean f4 [32]
00000000: 0e5b 853e ee50 1a3e 1da1 a0be c1eb 3ebe
00000010: d63f 78be fcc8 503d 8d5f 7b3e e744 07be
00000020: 4ff5 02be 9393 a8be a751 843d 963a 46bd
00000030: 5b29 993c 3daa 1a3e 1bf9 a4bd 9682 893b
00000040: 3c7a 643d e8e2 1fbe 12a0 77be 513f e6bc
00000050: 5cbb 003d 40b7 203e 97b9 efbd 6139 26bd
00000060: f9e1 bd3d 87ce d5bc 3a63 86bc 554f 023d
00000070: ef22 033c a8ee 5cbe bf9a 59be 7588 813d
0.26046032 0.15069935 -0.3137292 -0.1864462 -0.24243101 0.050972924 0.24548168 -0.13209878
-0.1278889 -0.3292509 0.064608864 -0.048395716 0.018696478 0.15104003 -0.080553256 0.0041964753
0.055780634 -0.15613902 -0.24182156 -0.028106363 0.03142868 0.15694904 -0.1170532 -0.040582065
0.092716165 -0.026099456 -0.016404737 0.03181394 0.008003934 -0.21575415 -0.21250437 0.06324855

running_var f4 [32]
00000000: 9c30 8f3e 8fe6 383e 7597 ba3e 27aa 583e
00000010: 7dd3 bb3e ac01 583e b752 843e 0544 4a3e
00000020: a297 513e 3df8 f13e e48a 843e bba6 953e
00000030: c9cf 2b3e 5e2b 2a3e 07cd 273e 7aaf 873e
00000040: ad68 2a3e 74ff 233e ac37 9d3e 2396 323e
00000050: cbc8 673e 07c5 553e d6b4 1b3e f004 513e
00000060: 9ff8 473e 0b7b 693e 7e73 0b3e 2654 043e
00000070: c298 753e 5334 913e a810 373e dda0 713e
0.27966774 0.18056701 0.36443678 0.21158658 0.3668479 0.21094388 0.25844356 0.1975251
0.20468 0.47259703 0.25887215 0.29228768 0.16778482 0.16618106 0.16386805 0.26501065
0.16641493 0.16015416 0.30706537 0.17440085 0.2263519 0.20875941 0.15205702 0.2041204
0.19528435 0.22800843 0.13618276 0.12922725 0.23984054 0.28360233 0.17877448 0.2359652

weight f4 [32, 32, 3, 3]
00000000: 8057 10bd b8e4 28bd adb4 013d d785 69bd
00000010: 5a93 e9bc acda 14bc c405 b13c c0f3 9ebc
00000020: 10cb 0b3d 5494 273d 93fe 0b3c cfb3 9e3c
00000030: 584d 5c3d b2e4 263d 4315 5bbd f5fe 32bd
00000040: 3592 5c3c ee08 b83b 0506 5a3d 23c2 453d
00000050: a961 183b a370 f1ba 2ba8 05bd 6b57 823c
00000060: b623 2c3d 3c08 e1bc be4b a8bc 09de c63c
00000070: dbcf 41bc 81a1 09bd 4c2c 54bc ffc5 a7bc
00000080: fa90 ddb9 93c0 e83b 814d 36bd 2409 d23c
00000090: 18ec 66bd 5c5c f9bc 76fd 46bc ba59 713d
000000a0: a791 8b3c 5aef 7f3c 4981 343d 5ae5 98bb
000000b0: 06c5 2b3c 2d13 1d3d 93ff 0d3d a9f5 563d
000000c0: 6ab5 ee3c e41f cc3c a3fd dabc 4f14 b33a
000000d0: c71a e73c e565 40bd 8870 58bc d9f5 36bd
000000e0: 51d6 43bd c99e dcbc 9c46 353d d803 dcbc
000000f0: 58df b839 47d1 acbc fbc2 64bd bde4 5fbd
00000100: 5d24 013d 4164 adbc 53ea 56bd d87d 51bd
00000110: b2f4 04bd ec73 023d 7200 b8bc d4e6 db38
00000120: d963 6a3d cf4b e13c 9290 2b3c 4600 a93c
00000130: 6731 a8bc 9eef 05bd 7d38 52bc e8c9 16bd
00000140: c563 113d 677b 003c 67be 39bd 2517 0e3c
00000150: 5eb8 eebc 64bc 193d 3e21 543d 014a e8bc
00000160: f45b 08bd a903 4e3d 1404 243d c3b6 cd3c
00000170: 2866 26bd 3ae5 10bd 01f0 b33b 0597 233c
00000180: 8630 21bd 0a8a 47bd 5a0f d4bc b6d9 193d
00000190: a3a5 b6bc 20c8 503d 62c0 4cb9 1b85 5a3d
000001a0: 7861 c9bb cd8b 07bd 182e 043d 9371 543d
000001b0: 6bf0 3a3b 7616 463c bcc6 83bc a5a0 76bd
000001c0: 2e49 9c3b 2ab7 043d 3515 493d 3224 023d
000001d0: 0ccf 933c 398d 97bb 3f13 6ebc bd3b 113d
000001e0: bbba e23c b0c8 213c 197a fabc 2665 ffbc
000001f0: b430 2b3d 3671 dd3c 38c2 f3bc c6cf a7ba
00000200: 2b65 9ebc bc57 32bb ad72 25bd e7d7 04bd
00000210: ef8e 81bc 496a 9c3b 40d7 afbc 1e04 fb3c
00000220: 514f 76bc 38af 7fbc fb5f e53c 8910 fe3c
00000230: d717 623d dc7f 4e3d 68c3 95bc fdd8 403d
00000240: 3dc5 6cbd d949 8ebc 4695 4ebc 2376 4d3b
00000250: 181e 423d 5f33 b03a b6df 56bd d27f 32bd
00000260: 1810 a83c b7d2 14bd 4b0b 42bd b93e 7a3b
00000270: aa4b 26bd 6e5d 2dbd 0401 ba3c af0d 693d
00000280: 2a07 45bd 8679 04bd 7aa3 15bd d8f3 403d
00000290: 7065 553d 0e42 03bd b63b 51bd 27bf 29bd
000002a0: 6b0b 99bc 0249 cabc d7e6 043c 3324 42bd
000002b0: 255c ed3b 4702 4bbc 9cab 573d e8f1 333d
000002c0: f163 5cbd 2b34 94bc 2526 1fbc 4cf5 813b
000002d0: 22e5 e8bc 1034 073d 57d7 013d 5e4f 5c3d
000002e0: 1748 22bd e237 743d b486 373d e719 eb3b
000002f0: 5240 5bbd 58aa 683d 7e95 bfbc a57d 9fbc
00000300: 7cbc 4e3d fb26 2bbd 7b5b 0abc c2a7 8f3b
00000310: 0cfe a3bc 7f8c f23c 3cee b6bb b9d7 92bc
00000320: 3a6e e53c 0e18 083c aba8 c53c 3a3a 733d
00000330: 0e2e 53bd 1820 abbc 87a1 84bc 574b 77bb
00000340: 7ce8 893c e4e4 a8bc f727 7ebc b793 d3bc
00000350: 2dda 56bc b589 0c3d 9ac7 7fbc b83a a03c
00000360: d037 cd3c 940b 0bbd 42a9 4c3d 087c c3bc
00000370: 51ce 3d3d df84 2cbb 6e62 313d 29f9 6ebd
00000380: 9688 8f3c d765 1c3c 50f7 b93c 71f2 5fbd
00000390: c15a 383d 55fe 0a3d dbe3 813c aebd d63c
000003a0: 37cb 483c 9013 21bd f6c9 febc c600 b8bc
000003b0: 1343 ebbc e979 60bd b1a6 383d f2d0 693c
000003c0: 6dec 59bd 4b70 4d3d 6130 07bd 56e8 e1bc
000003d0: 31b5 823c 4d9d 10bd ffff c03c 628b a1bc
000003e0: f93b 86bc a410 aa3b bc91 96bc a64b 9e3c
000003f0: 4e69 63bc 46ad 12bd e3a1 e63c dcc1 f7bc
-0.035239697 -0.04123375 0.031666446 -0.057012405 -0.028512646 -0.009085339 0.021609195 -0.019403338
0.034129202 0.04091294 0.008544582 0.019372849 0.0537847 0.040745445 -0.053487074 -0.043700177
0.013462593 0.005616299 0.053228397 0.048280846 0.002325157 -0.0018420409 -0.03263108 0.015910825
0.042026244 -0.027469747 -0.02054393 0.024275796 -0.011829342 -0.033601288 -0.012950014 -0.020480154
-0.0004226042 0.0071030348 -0.044507507 0.025639124 -0.0563775 -0.030439548 -0.012145391 0.05892346
0.017037226 0.015621031 0.04406861 -0.0046660127 0.010483986 0.038348366 0.034667563 0.052480374
0.02913924 0.02491755 -0.026732272 0.0013662669 0.02821101 -0.046972174 -0.013210423 -0.044668052
-0.04781181 -0.026931183 0.04425679 -0.026857302 0.0003526162 -0.021095885 -0.05585001 -0.0546615
0.03152882 -0.021165969 -0.052469563 -0.051145405 -0.032459922 0.031848833 -0.02246115 0.00010485729
0.05722413 0.027501969 0.01047148 0.020630013 -0.02053137 -0.03269922 -0.012830851 -0.036813647
0.03549554 0.007841921 -0.045347597 0.00867251 -0.029140648 0.03753318 0.051789515 -0.0283556
-0.03329082 0.05029646 0.04004295 0.025111562 -0.040624768 -0.035374857 0.005491257 0.009984736
-0.039352916 -0.04871563 -0.025886226 0.03756114 -0.022295779 0.050972104 -0.00019526624 0.053349596
-0.0061456524 -0.03309231 0.03227052 0.051866125 0.0028524648 0.012090316 -0.016085975 -0.060211796
0.004769466 0.03240124 0.04909249 0.0317728 0.018043064 -0.0046249893 -0.014530956 0.03545736
0.02767693 0.009874508 -0.030575799 -0.031176161 0.041794494 0.027031522 -0.029755697 -0.001280301
-0.01933535 -0.0027212938 -0.040392566 -0.032432463 -0.015815226 0.0047734124 -0.021464944 0.030641612
-0.015033559 -0.01560574 0.027999869 0.031013744 0.055198517 0.050414905 -0.018281654 0.047081936
-0.05780529 -0.017369198 -0.012608832 0.0031350933 0.04739198 0.0013443044 -0.05245944 -0.04357893
0.020515487 -0.036333766 -0.04737405 0.0038184358 -0.040599503 -0.04232543 0.022705562 0.056897815
-0.048102535 -0.032342456 -0.036532857 0.047107548 0.05209869 -0.032045417 -0.051082335 -0.041442063
-0.018682202 -0.024693016 0.008111677 -0.047397804 0.0072436505 -0.01239068 0.052653894 0.04393187
-0.05380625 -0.018091282 -0.009713684 0.0039660092 -0.028429572 0.033008635 0.031699505 0.053786628
-0.03961953 0.059623607 0.044806197 0.0071747187 -0.053528138 0.056803077 -0.023386713 -0.019469092
0.05047272 -0.04178522 -0.008444662 0.004384012 -0.0200186 0.02960801 -0.005582599 -0.01792513
0.028006662 0.008306516 0.024128279 0.0593817 -0.051557593 -0.020889327 -0.016190303 -0.0037734115
0.01683449 -0.020616956 -0.015512458 -0.025827272 -0.013113541 0.034311015 -0.015611554 0.01955925
0.025051028 -0.03394659 0.049966104 -0.023862854 0.046339337 -0.0026324315 0.04330676 -0.058343086
0.017521184 0.009545765 0.022700936 -0.05467457 0.045008425 0.033933956 0.01585572 0.026213493
0.012255481 -0.039325297 -0.031102162 -0.022461306 -0.028718507 -0.054803763 0.045080844 0.014271008
-0.05320399 0.05015592 -0.033005122 -0.027576607 0.01595554 -0.035306264 0.023559568 -0.019719783
-0.016386019 0.005189972 -0.018380038 0.019323181 -0.013880087 -0.035809778 0.028153365 -0.030243807

bias f4 [32]
00000000: 69cd 30bb af9a 50bd c475 26bd 4ffc 2f3d
00000010: 0670 5b3d be73 43bd b67f 6bbd fb61 adbb
00000020: efa0 3f3d 3fbf 1bbd 388f ca3b 1b05 c43c
00000030: a328 37bd bab9 e33c 6c57 31bd 4655 a0bc
00000040: 67cb 54bd fa17 61bc 7f0f eabc be54 453d
00000050: a802 2ebc 5de0 7fbc 467e 4db9 5b70 2ebd
00000060: 003f 1cba 32dc 0abd a1ed d13c ae3f a7bc
00000070: 565a 12bd fcfd 70bd dd60 0d3d 10e8 ca3c
-0.0026977903 -0.050928768 -0.040639654 0.04296523 0.05357363 -0.047717802 -0.05749484 -0.005291221
0.046784338 -0.038024183 0.006181624 0.023928216 -0.04471649 0.027798522 -0.043296263 -0.019571912
-0.051951792 -0.013738627 -0.028571842 0.04817652 -0.0106207505 -0.015617457 -0.00019597364 -0.04258762
-0.00059603155 -0.0339014 0.025626006 -0.020416107 -0.035730682 -0.05883597 0.034516204 0.02476886

weight f4 [32]
00000000: 1b2c 803f c1fd 7f3f e4ee 7f3f a4ad 7f3f
00000010: 3d01 803f 1fe1 7f3f 7bf4 7f3f 7fda 7f3f
00000020: 4ec6 7f3f a400 803f 06c7 7f3f 8be8 7f3f
00000030: 28dc 7f3f 6513 803f 6f15 803f f9cd 7f3f
00000040: 0502 803f d1f7 7f3f c70d 803f 9ba9 7f3f
00000050: 560f 803f b879 7f3f 42de 7f3f a51e 803f
00000060: a1c7 7f3f 5114 803f 1310 803f 680e 803f
00000070: f7ea 7f3f 48f1 7f3f e803 803f 0ede 7f3f
1.001346 0.9999657 0.99973893 0.9987433 1.0000378 0.9995288 0.9998242 0.99942774
0.99911964 1.0000196 0.9991306 0.9996421 0.99945307 1.0005919 1.0006541 0.99923664
1.0000616 0.9998751 1.0004205 0.9986817 1.000468 0.99795103 0.99948514 1.0009352
0.99913985 1.00062 1.0004905 1.0004396 0.999679 0.9997754 1.0001192 0.99948204

bias f4 [32]
00000000: effd e339 218d 0b3b a9db 383a 741e 12bb
00000010: 5169 eeb9 4971 c4b9 3d22 0eb9 da1e 453a
00000020: 0ffa 07ba 9c20 8f3a 4c80 5839 4e19 c039
00000030: e415 3936 88d3 6b3a 0f05 63ba a1ab 6b3a
00000040: c3f5 2cba 41d7 f73a 0c76 6839 3615 83ba
00000050: e9c3 e13a 3147 8438 5356 c0ba 9f6e d43a
00000060: 7523 2c3b 0f1d 04bb d94f cf3a 9b77 be3a
00000070: ee92 b8b9 032e d2ba b930 193b 7dff b1b9
0.0004348601 0.0021293836 0.0007051775 -0.0022295984 -0.00045473364 -0.00037468437 -0.0001355493 0.0007519551
-0.0005187103 0.0010919753 0.0002064716 0.00036639947 2.757989e-06 0.0008996059 -0.00086601166 0.0008990113
-0.00065979006 0.0018908755 0.0002216922 -0.0010000828 0.0017224523 6.307511e-05 -0.0014674164 0.0016207284
0.0026266251 -0.0020158922 0.0015816643 0.0014531495 -0.00035204686 -0.0016035441 0.0023374988 -0.00033950424

running_mean f4 [32]
00000000: 198a f3bd 26e8 273e 5c65 c73d 4b80 783d
00000010: e52a 643b c7d1 63be d701 18be 9cd0 793d
00000020: dfec 0d3e 3a84 abbd 4ed6 a53e 31f3 0f3b
00000030: 6672 d3bd d3d7 8dbc ac81 b43c 7c63 ccbd
00000040: 529c 1bbe 7f86 413c 6a5d 37be 9ba1 2bbd
00000050: 322d 753d bf81 e83c 58fc 3abe 69c7 f0bd
00000060: 62df 3abe e040 21be 465a 893d a75d 743d
00000070: f07f 2ebd d327 0fbe d056 363e b61a 91b9
-0.118915744 0.16397151 0.0973613 0.060669225 0.0034815606 -0.22247992 -0.14844452 0.06098996
0.1385989 -0.083748296 0.32390064 0.0021965022 -0.10324554 -0.017314827 0.022034489 -0.09979913
-0.1519635 0.0118118515 -0.17906728 -0.041902166 0.059857555 0.02838218 -0.18260324 -0.117567845
-0.18249276 -0.15747404 0.067066714 0.059659626 -0.04260248 -0.13980035 0.17806554 -0.00027676456

running_var f4 [32]
00000000: e6bd c23d a785 0e3e 4a38 123e 9036 ce3d
00000010: 7e83 f53d d92d 283e b307 ab3d 6ed6 bd3d
00000020: 5d8f db3d 25ca a03d 566b 1f3e daa4 fa3d
00000030: 3d4b 0a3e f098 b03d 1e48 ef3d f192 143e
00000040: 4bb8 b73d fcd1 b63d 2879 e73d 57fb 953d
00000050: c783 9c3d ecd9 953d 30f8 d93d b9c6 933d
00000060: 6ded e73d 0eb9 ef3d 0976 b23d 9c38 913d
00000070: 614a 1f3e a4f5 953d 5a4f 993d e04f dd3d
0.095088765 0.13918172 0.14279285 0.10069001 0.11987971 0.1642374 0.08351078 0.09269415
0.10720704 0.07851056 0.15568289 0.12238474 0.13505264 0.086229205 0.11683677 0.14509179
0.08970698 0.0892677 0.113024056 0.0732333 0.07642322 0.07316956 0.10643041 0.07215638
0.11324582 0.11705218 0.0871392 0.070908755 0.15555717 0.07322243 0.07485838 0.108062506
